libfranka_ws/src/Model_Based_RL_Teleoperation/Model_based_RL_Teleoperation/rl_agent_autoregressive/models/FetchPush-RemotePDNorm-v0/2-256-1_step_prediction_sd.pt (torch, 567255 bytes, 8 tensors)

fc1.weight f4 [256, 21]
000000 48 a3 40 3d 45 89 02 3e 63 93 3f 3e fe 4c e6 3d
       0.047030717 0.12747677 0.18708567 0.11245154
000010 9a 06 35 be c6 09 25 be d8 9c 5a 3d f4 2d a4 bd
       -0.176783 -0.1611701 0.053372234 -0.08016577
000020 85 34 56 bc 01 90 2e 3e 02 bc 46 be 82 d9 2e 3d
       -0.013074045 0.1704712 -0.19407657 0.0426879
000030 16 ce 09 bc 61 df 16 be 2c b2 d6 3d 24 66 04 3e
       -0.008410951 -0.1473365 0.10483202 0.12929589
000040 65 ad 2e 3e 7f f3 05 3e 54 cc a7 3d 79 fe 5b be
       0.17058332 0.13081168 0.08193269 -0.21483792
000050 d4 f8 2c bd e4 66 a5 bb 10 24 20 3e c6 2c 4f 3d
       -0.04222949 -0.005047666 0.15638757 0.05057981
000060 59 ca 4f 3d 19 20 53 3e 6b 06 36 3e 5d 58 2c 3e
       0.050730083 0.20617713 0.17775886 0.16830583
000070 0c a4 0d be db 4a 48 3e c5 a1 5e 3e df ec 79 3c
       -0.1383211 0.19559805 0.21741398 0.015254228
000080 2b 54 bd bc 0d ff 49 3e 1c d4 13 3e b9 d1 36 3d
       -0.023111423 0.197262 0.14436382 0.0446336
000090 40 34 d1 3d dd 8c 17 3d b5 2a 8d 3d 0b 93 11 be
       0.10215044 0.036999572 0.06892911 -0.14216249
0000a0 ae c5 21 3c 8a cd 17 3e ca e1 10 3e ec b0 06 be
       0.009873791 0.148245 0.14148632 -0.13153428
0000b0 bb b7 8c 3d a7 04 e8 3d 50 fb 20 3e d2 2f 6f bd
       0.06870981 0.11329012 0.15720868 -0.058395214
0000c0 36 e3 9a bd f9 21 83 3d d1 de b9 bd d6 59 ce bd
       -0.07562868 0.06402964 -0.09075702 -0.100757286
0000d0 61 d0 5a 3e 4d 62 38 3e 79 8f 19 bd d9 6b 41 3e
       0.21368553 0.18006249 -0.03749034 0.18888797
0000e0 d1 f7 1e be f5 e6 f0 3d 76 7a f5 bd 93 29 d8 bd
       -0.15524222 0.117628016 -0.11986248 -0.10554805
0000f0 96 39 86 3d de f4 a8 bd 7d c2 a0 3d 71 ad a5 3d
       0.065539524 -0.0824983 0.07849596 0.08089722
000100 e9 7f 1c 3e 80 10 ee 3d 08 6e 13 be 0c 80 bc 38
       0.15283169 0.11624241 -0.14397442 8.988389e-05
000110 ec ba 3b 3e 50 ef 4a 3e 59 8d b5 bd 83 c0 fa bd
       0.18333024 0.19817853 -0.088648506 -0.1224375
000120 d6 92 0f 3c 0a ab e6 3d 8f e8 8c 3e a1 ec 4a 3e
       0.008763036 0.11263092 0.27521178 0.1981683
000130 bd de 1f 3e 30 d0 b8 bc 48 7b 1b 3e 94 67 31 3e
       0.15612312 -0.022560209 0.15183747 0.17324668
000140 50 a4 48 3e d3 84 2c 3d 01 86 fe bd b2 95 5b 3d
       0.1959393 0.04211886 -0.12427903 0.053609557
000150 4e 95 08 be b5 c3 ac 3d 53 d6 0a 3e af de 87 bd
       -0.13338205 0.08435766 0.1355832 -0.066342704
000160 d2 19 80 3d 11 75 e9 bd 99 53 45 be e8 f5 52 be
       0.06254925 -0.11399282 -0.19270171 -0.20601618
000170 b2 8f 46 3c b4 60 2a 3e 93 16 13 be 6f 6e 0e 3d
       0.012119221 0.16638452 -0.1436408 0.034773286
000180 c5 fa 54 bc 6a 86 06 3e 39 23 9e 3d a9 ee 46 be
       -0.012999241 0.13137212 0.07721562 -0.19426979
000190 85 20 e8 bd 02 a6 b2 3c 96 75 24 bd 4d 15 6d 3c
       -0.113343276 0.021807674 -0.0401512 0.0144704105
0001a0 46 31 17 be fa ba 4d 3c b8 6d c5 3d 40 93 87 3d
       -0.1476489 0.012556786 0.09640068 0.066198826
0001b0 3b 27 ec 3d 6b c6 b0 3d aa 46 90 3d 0a b2 97 bd
       0.1153092 0.08631595 0.07044728 -0.07407005
0001c0 22 73 69 bd f7 5b b4 3d c6 69 1a be 46 1d 9a bd
       -0.056994565 0.088066034 -0.15079412 -0.07525115
0001d0 a1 92 87 bd b0 ff b7 3d d9 fd 2b 3d 9d 78 4b 3d
       -0.06619764 0.089843154 0.041990135 0.049675573
0001e0 7a 01 ab 3d 7e 20 66 bd b8 61 4b be aa bb 02 be
       0.08349891 -0.05618333 -0.19861495 -0.127669
0001f0 1b 8b 44 3e 4c 14 4c be 6c b9 95 bd 9c 38 d8 3c
       0.1919369 -0.19929618 -0.07310757 0.026394181
000200 e7 3a f9 bc 02 3d 9f 3d 35 0e 66 3e 7a d1 1c 3d
       -0.030423595 0.07775308 0.22466357 0.03828571
000210 95 16 14 be ca 9d db bd e1 76 64 3d c1 90 dc 3d
       -0.1446174 -0.10723455 0.055777434 0.10769797
000220 a0 8a 81 3b 29 c4 83 3d a6 6b 5c be 8e bb dc 3d
       0.003953293 0.06433899 -0.2152544 0.10777961
000230 3d bd 43 3e 5d 4c 15 be 3d ac 88 3d fb 6d 52 3e
       0.19115157 -0.14579912 0.06673477 0.20549767
000240 66 d6 8d bd e4 64 00 be 0b d9 da bb b7 1f 9a bc
       -0.06925659 -0.12538487 -0.0066787056 -0.018813951
000250 2d 58 52 be 4e 1a c8 bd 83 54 9e 3d 40 3c ef bd
       -0.20541449 -0.09770642 0.07730963 -0.11681414
000260 ed d6 04 3d c4 22 cb bd 7b e1 8d bd ec 56 92 bd
       0.03243153 -0.099187404 -0.069277726 -0.07145485
000270 5c 5a 65 3c 32 57 01 be 79 99 8b bd 65 cd 31 3e
       0.013998594 -0.12630919 -0.06816382 0.17363508
000280 7a 4f 0a be 90 36 13 3c 6f 24 d6 bd 0a 4d 79 bd
       -0.1350688 0.008985177 -0.10456168 -0.060864486
000290 9c c7 44 3e cd 1e c7 3b 8a 0f b6 bd 28 83 2c 3d
       0.1921677 0.00607667 -0.088896826 0.042117268
0002a0 23 91 36 be a9 d8 cb bd 22 95 50 be 9a bc 02 bd
       -0.17828803 -0.09953434 -0.2036939 -0.031918146
0002b0 86 0d c0 bd 51 1e 22 bd e2 b9 67 bd 28 1d 61 bd
       -0.093775794 -0.039579693 -0.056573756 -0.054959446
0002c0 f1 7a 9b bd 6e 83 a0 be d6 d8 33 be 55 4d 52 be
       -0.075918086 -0.31350273 -0.17563185 -0.20537312
0002d0 4a d3 8a 3e 83 8a 58 3e fb 8f 14 bd f7 47 1a 3d
       0.27114326 0.21146588 -0.036270123 0.037666287
0002e0 ea 0a 37 3e 5b cc 0a be 19 e3 f2 3d 99 d9 ae 3d
       0.17875257 -0.13554518 0.11859722 0.08537597
0002f0 32 68 32 3e 8c c3 06 be b4 4c 84 be 75 99 90 be
       0.1742256 -0.13160533 -0.2583977 -0.28242078
000300 db be fc 3b 14 89 3b be 09 d2 04 bd ab 25 14 3d
       0.0077131814 -0.1831401 -0.032426868 0.036168735
000310 d4 61 f9 3c 50 a2 60 3e e2 bb e9 3d e9 fe b3 3e
       0.030442156 0.21936917 0.11412789 0.3515542
000320 ed 58 a1 bd 89 44 bb be 39 9a 3b 3e 9b 52 54 3e
       -0.07878289 -0.36575726 0.1832055 0.20734636
000330 cd ec 9b 3d d9 03 e6 3d b0 2d 2b bb 0d 29 92 bd
       0.076135255 0.11231203 -0.0026119761 -0.07136736
000340 6e 6d 4d be fb cd 2d be 63 e2 c3 bd 55 b1 16 3e
       -0.20061275 -0.16973107 -0.09564664 0.14716084
000350 49 fc f5 3d 8d df fe bd 52 a6 59 bc 48 89 ca 3d
       0.1201101 -0.12444983 -0.013284283 0.098894656
000360 b1 b3 34 3e 31 65 3b 3b 06 3c c4 bc e8 cd 1c be
       0.17646672 0.002859425 -0.023954403 -0.15312922
000370 12 73 64 bd 41 5a 95 bd bb 33 3b bd fd c6 15 bd
       -0.055773802 -0.07292605 -0.04570363 -0.036566723
000380 f3 5c db 3b 74 20 fa bd 50 35 1f 3b 15 a6 88 bd
       0.00669443 -0.12213221 0.0024293251 -0.06672303
000390 4c 23 2d be f6 07 49 be 11 c4 f9 bd fb 57 42 be
       -0.16907996 -0.19631943 -0.121956 -0.18978874
0003a0 c5 bb 95 ba be d6 1b be 72 e2 04 be 8a 5d fd bd
       -0.0011423758 -0.15218636 -0.12977007 -0.12371357
0003b0 85 aa 17 3d 78 b3 68 3d 2f 1b 25 be 2f 6a a2 bd
       0.037027854 0.05681178 -0.16123651 -0.07930409
0003c0 bf 73 fc 3c e1 75 b4 3c 4e 49 8b 3e 1e 6e 3e 3e
       0.03081691 0.022028865 0.27204365 0.18596694
0003d0 9d 71 a9 3c 61 2f ef 3d c7 dc 35 be 06 66 1c be
       0.020684058 0.11678959 -0.17760001 -0.15273294
0003e0 67 6a 79 bd 5e aa ec bd 0c f1 ac 3d 60 4b 85 3d
       -0.06089249 -0.115559325 0.084444135 0.06508517
0003f0 02 1a cf 3d 18 35 28 3e 7b a7 f4 3d 3c d3 e2 bd
       0.101123825 0.16426504 0.11946007 -0.11075446

fc1.bias f4 [256]
000000 f6 74 1c be 37 f8 d2 3d b9 3b f7 3d fe ee 60 be
       -0.15278992 0.103012495 0.12071938 -0.21966168
000010 c5 8e 32 be 6a 79 59 be 86 f2 50 3e 04 1c f4 3d
       -0.17437275 -0.21237722 0.20405015 0.11919406
000020 25 9b e4 bd 11 c4 13 3e 3e 37 34 bd fb fe d6 bd
       -0.11162404 0.14430262 -0.043997996 -0.104978524
000030 98 42 b4 bd 9a 0c d9 bd ca 63 c4 3d c2 83 cd 3c
       -0.08801764 -0.10598107 0.09589346 0.025087241
000040 ea f1 f3 bd 24 e9 c1 bd 43 3e 80 bd f7 95 53 be
       -0.11911376 -0.09468296 -0.062618755 -0.20662676
000050 7b 9d d3 bd 06 76 44 3e b0 7b 3d 3e 8a 47 03 3d
       -0.103327714 0.19185647 0.18504214 0.032050647
000060 6a 02 be bd 04 a2 e2 bd 08 36 51 be b1 cc 6a bd
       -0.09277804 -0.11066058 -0.20430768 -0.057324115
000070 78 6f 2f 3e 82 21 ce 3d 56 65 39 3d a9 24 a3 bd
       0.17132366 0.10064985 0.045262657 -0.07965977
000080 0b 78 8b 3b 0d 47 e1 3d a7 9d 2e be a0 53 1c 3e
       0.0042562536 0.1099988 -0.17052327 0.15266275
000090 8d 2f 4a bc ca ab 9d bd 19 32 5c be 5c 0f 95 3d
       -0.012340439 -0.07698782 -0.21503486 0.0727832
0000a0 c5 03 96 3d 9a 00 96 3d 2c 4f 53 bd 43 3d 32 be
       0.07324938 0.073243335 -0.051589176 -0.17406182
0000b0 52 2f dd bd d2 61 bf bd 90 7a 2b be 2f 1e 32 be
       -0.10800041 -0.093448296 -0.16745973 -0.17394327
0000c0 f9 37 12 be 39 e6 7f bb b2 f3 49 3d d3 35 2e 3e
       -0.14279164 -0.0039047136 0.04930467 0.1701272
0000d0 7d 0b 35 3d aa 17 4d bd 16 d3 3a 3e 6b 79 81 3d
       0.04420041 -0.050071396 0.18244585 0.06321987
0000e0 df 92 13 be 7c c2 b1 bd 26 d1 1e 3e 86 7a 86 3d
       -0.14411496 -0.08679673 0.15509471 0.06566338
0000f0 99 0c 3b 3c f7 0e 80 bc 58 ad 02 be 5b 6e 60 3e
       0.011416578 -0.015632136 -0.12761438 0.21917097
000100 86 8b 45 bd 00 41 f4 bc e6 9f 44 bc fe eb 80 3e
       -0.048228763 -0.02981615 -0.012001013 0.25180048
000110 35 cb b3 3d 0a 3e 5b 3e 72 3b 07 bd bc b1 87 bc
       0.08778993 0.21410385 -0.033015676 -0.016564243
000120 41 59 4a be a3 07 15 be 3a 58 4d be fa 19 8b bd
       -0.1976061 -0.14553694 -0.20053187 -0.06792064
000130 57 36 3b 3e c5 0b b6 3d 02 70 fb bd 99 8d aa 3d
       0.18282448 0.088889636 -0.12277223 0.08327789
000140 99 51 39 bd 4a 1e 4f 3e bd c3 76 3c 9a 34 19 be
       -0.045243833 0.20226398 0.015061316 -0.14961472
000150 5e 15 10 3e 49 c8 df bd 6a f1 54 3e b3 61 ee bd
       0.14070651 -0.10926873 0.20795217 -0.116397284
000160 53 c2 1e 3e 2e 0d 15 bd c4 22 10 bd 6d d7 05 be
       0.15503816 -0.036389522 -0.035189405 -0.1307046
000170 4c 28 14 be ce 9d 35 be 3c 58 6b 3e 4f 99 8e bd
       -0.14468497 -0.17735979 0.22982877 -0.06962835
000180 4d 97 75 3d e2 96 42 3e 2a a7 e8 3d ad cb 46 be
       0.059958745 0.1900287 0.11360009 -0.19413634
000190 e9 95 bc bd e0 f5 64 ba 22 6a 27 be 64 1d 5d be
       -0.092082806 -0.0008734148 -0.1634908 -0.21593243
0001a0 45 66 3f 3e 7a 94 d8 bd ce f2 91 3d e9 27 4e be
       0.18691356 -0.10575195 0.071263894 -0.20132412
0001b0 ac 7f df 3d 75 fa d7 3d 05 2f 53 be 05 7f 01 3e
       0.10913023 0.10545818 -0.20623405 0.1264611
0001c0 fb 77 3e 3d f2 2f 42 bd 60 37 19 be c8 92 0b 3c
       0.04650114 -0.047409005 -0.1496253 0.008518882
0001d0 d0 41 d1 3d f2 22 b2 3c 89 82 eb 3d 67 c8 15 3e
       0.10217631 0.021745179 0.11499507 0.14627229
0001e0 2a 6e 1f bd 3f 59 a1 bd d6 bd 89 3e 28 6a 04 be
       -0.03892342 -0.078783505 0.26902646 -0.1293112
0001f0 5a 18 1c bd 02 03 20 3d 9a d5 9a 3d b0 2f ad 3d
       -0.03810916 0.03906537 0.075602725 0.08456361
000200 cc aa 01 be a0 f3 2b be 50 29 51 be 3d ff c6 bc
       -0.1266281 -0.16792154 -0.20425916 -0.024291629
000210 f1 bc fd 3d 35 8d 81 bd ef 89 46 3e 65 76 ab 3d
       0.12389553 -0.06325761 0.19388555 0.08372191
000220 45 24 16 be 8c b5 49 bc c2 5b 87 bd 78 7a 58 3e
       -0.14662273 -0.012311351 -0.06609298 0.21140468
000230 ff 82 2f 3d 02 ef 5a 3e a7 0f 1b be 25 09 49 3e
       0.042849537 0.21380237 -0.1514269 0.19632395
000240 0d 5c c2 3d d5 d5 1e be 19 ee c6 3d 3d 0e 28 3e
       0.094902135 -0.15511258 0.09713382 0.16411681
000250 c2 f7 74 bd a3 c5 3b be 23 ca 9a 3b d6 fb c4 bd
       -0.059806593 -0.18337111 0.0047238036 -0.096183464
000260 c4 a5 1c bd 41 52 0b be a2 3a 24 be 06 8c 29 3e
       -0.038244024 -0.13605596 -0.16037992 0.16557321
000270 fa ac ce 3c b1 4f 8a 3e 5d 71 81 3e de e4 1f 3e
       0.025228966 0.27013925 0.25281802 0.1561465
000280 04 d2 11 bd ae a0 26 3e 74 e8 5c 3e 83 5b 2f 3d
       -0.035600677 0.16272232 0.21573049 0.04281188
000290 56 f9 6d bd 86 ed 58 3e 57 25 f4 bd 9b d9 c4 bd
       -0.058099113 0.21184358 -0.119211845 -0.096118174
0002a0 50 70 95 3d 9b 58 93 3d 79 c7 32 be d9 ee ea 3d
       0.072968125 0.071946345 -0.17458905 0.11471338
0002b0 8f 66 0a be 48 15 05 bd b6 58 00 3e a9 3b 55 bd
       -0.13515685 -0.032491 0.1253384 -0.05205885
0002c0 68 84 a2 bd 41 68 0e 3e c6 52 38 3e 39 6a ca bd
       -0.07935411 0.13906957 0.18000326 -0.098835416
0002d0 0e 13 ac 3d 57 5c 94 bd 4c 95 4f bd 21 a5 3a be
       0.08402072 -0.07244175 -0.05067949 -0.18227054
0002e0 a8 09 08 3e c7 e1 ee 3d 01 2a d1 bc d6 1d 3f 3e
       0.13284934 0.11664157 -0.025532724 0.18663725
0002f0 08 2c 1a 3d 0a 39 cc 3d c0 e0 97 3d a4 9e 6f 3e
       0.037639648 0.09971817 0.074159145 0.2340036
000300 9f d2 79 bd 4c 0d 51 3e 7f 4e 4c 3e 4f 30 5c be
       -0.06099188 0.20415229 0.19951819 -0.21502803
000310 93 52 3b be 8c c7 dd 3d 56 3c f6 bd 98 0e e9 3c
       -0.18293218 0.10829076 -0.12023227 0.028449342
000320 74 12 8e 3d 90 2f a1 ba 64 3f f8 bd de 89 61 3e
       0.069371134 -0.00122975 -0.12121466 0.22025248
000330 6f 20 49 be ed 6b d2 3d 6f 20 11 3e 8f 39 10 3e
       -0.19641279 0.102744915 0.14172529 0.14084457
000340 a6 42 d6 bd bf b6 ac 3d 5f 5b 11 3e 14 7d 27 3e
       -0.10461931 0.084332936 0.14195012 0.16356307
000350 97 09 42 3e 07 0e 2a 3e c0 ef 58 3e 79 83 0b be
       0.1894897 0.16606914 0.21185207 -0.13624372
000360 c5 77 f2 bc c3 0d 21 3c 0d de 01 3e c0 a7 40 bc
       -0.029598126 0.009829941 0.12682362 -0.011758745
000370 e8 bf e4 3d 0a e5 91 bd 98 77 42 3e 56 21 82 bb
       0.11169416 -0.07123764 0.18990934 -0.003971259
000380 84 9f fb 3d 77 53 60 3d 80 b6 b6 bd 95 f1 5a bc
       0.122862846 0.0547671 -0.08921528 -0.013363262
000390 28 58 d1 bd 6e 7f 20 be 35 70 91 bc 2b c0 a6 3d
       -0.102218926 -0.1567361 -0.0177537 0.08142122
0003a0 8f 40 4a 3e a2 ea 87 bd e0 64 c6 3d 9d c2 43 be
       0.1975119 -0.066365495 0.09687209 -0.19117208
0003b0 6c 42 56 bd 30 fc 33 3e 4f d0 54 3e 5c b7 d9 3d
       -0.05230944 0.1757667 0.20782588 0.10630676
0003c0 fd 27 8b 3d 66 60 94 bd 28 de f8 bd ac ad 8d bc
       0.067947365 -0.07244949 -0.12151748 -0.017294727
0003d0 18 e8 05 3e 52 70 80 3d 5c 62 ab 3d cd b3 bd 3d
       0.13076818 0.062714234 0.0836837 0.0926281
0003e0 dc d6 0f 3d f6 fb 6b 3e 31 dd 3c 3e 1e 75 5f 3e
       0.035117015 0.23045334 0.18443753 0.2182202
0003f0 d9 f1 1d be 74 a1 9f 3d 1b 89 43 bc 4b a8 05 be
       -0.15424289 0.077944666 -0.011934544 -0.1305248

fc2.weight f4 [256, 256]
000000 08 4d ed 3c 2b e8 08 bc 5d f4 d7 bb 62 ac 8a 3c
       0.028967395 -0.008356134 -0.0065904097 0.016927902
000010 5a 73 79 bd 94 03 e5 bc 6c f4 21 bd 20 ca a3 3c
       -0.060901023 -0.027955808 -0.03953974 0.019993842
000020 c0 cc d3 bc aa 6e 1f 3d 1f 8e 3e 3d 3f ff a2 3a
       -0.025854468 0.038923897 0.046522256 0.0012435688
000030 c7 4a 7c bd e6 70 83 bd a1 ce 30 bd 78 45 54 3d
       -0.06159475 -0.06418018 -0.043165807 0.051824063
000040 6d a3 22 3d 5e 82 48 3d 80 2e 9c 3c ab 3c 59 bd
       0.039706636 0.048952453 0.019065142 -0.053036373
000050 15 d2 04 3d 75 f9 54 bd e0 5d 5d bd 97 03 41 3d
       0.032426912 -0.051995713 -0.054044604 0.047122564
000060 58 bf 5a bd 28 77 12 bd 39 c0 f4 bb 12 dc 16 3d
       -0.053405136 -0.035758168 -0.007469204 0.03683097
000070 53 5f 81 bd 3d 36 50 3d 2d a9 6b 3d 6f 38 0d bd
       -0.0631701 0.050832976 0.057534385 -0.034477647
000080 6d d2 9e 3c 65 4e 6d 3b ca 1e a8 3c a0 57 1a 3c
       0.019387448 0.0036210057 0.020522494 0.0094203055
000090 74 a2 73 3a 02 3e 5a bc 9c eb b9 bc 70 c7 cc 3c
       0.0009293922 -0.013320448 -0.022695355 0.024997443
0000a0 2e ca 30 bd 08 76 b9 bc 0f b0 65 bd 2a 34 3b bc
       -0.043161564 -0.02263929 -0.056076106 -0.011426011
0000b0 ee 86 19 3d f1 88 36 3d 1d 90 95 3b de 00 c0 3a
       0.037482195 0.04456419 0.004564299 0.0014648696
0000c0 aa b9 12 3d e0 c7 89 3a 27 de 1a 3d 31 3d 7f 3c
       0.035821594 0.0010511838 0.037809517 0.015578554
0000d0 c2 87 dc bb 62 ab 66 3d 51 b4 78 bd 0e 85 21 bd
       -0.006730051 0.056315787 -0.060718838 -0.03943353
0000e0 ee 26 3f 3d f0 b6 9d bc 6c ba b8 bc eb a9 4b bd
       0.046667986 -0.01925227 -0.02254983 -0.049722593
0000f0 ea ad 23 3d 8f 71 0b 3c 04 2f 23 bd 9c a7 43 3d
       0.03996078 0.008510961 -0.03983976 0.047767267
000100 7b 4b bb bc 88 73 cf 3c 5a 33 b7 bc c1 ab d9 3c
       -0.02286314 0.025323644 -0.022363354 0.026571156
000110 4f 59 c1 bc fa f1 53 3d ae 87 68 bc 30 32 94 3c
       -0.023602156 0.05174444 -0.014192505 0.018090338
000120 81 fa 2d bd a8 c4 b1 bc 3f 9a ea bc 9e 8d 43 3d
       -0.042475227 -0.021700218 -0.028638003 0.04774248
000130 d0 43 92 bc 5f a4 80 bd d0 38 6b bd af 34 45 bd
       -0.017854601 -0.06281351 -0.057427227 -0.048145946
000140 61 5c 12 bd cd 4e e6 3c bb d7 5a 3d 20 57 c3 3b
       -0.03573263 0.028113747 0.053428393 0.005961314
000150 12 9a 16 bd 3a 23 b4 3c fc 48 ad bc 5d 4d 97 bc
       -0.036768027 0.021989454 -0.021152966 -0.018469507
000160 ef be 43 bc ac ea 71 3d b0 2a 4f bd 5c e4 57 bd
       -0.011947378 0.05906169 -0.05057782 -0.052708015
000170 50 2b 44 bd cd b5 1c bd 03 d9 49 3d 1c 45 9c 3c
       -0.04789287 -0.038259316 0.049279224 0.019075923
000180 93 85 34 bd 86 3b 24 3b ca 90 6a 3d 39 e5 fa bc
       -0.0440727 0.0025059893 0.057266988 -0.03062688
000190 88 af ba bc b3 f6 fa 3b 40 ab 13 bd 10 e2 7f bd
       -0.022788778 0.0076588034 -0.03605199 -0.06247145
0001a0 91 04 8e bb e8 f3 6c 3c d0 9c 91 3c 82 06 58 3d
       -0.0043340405 0.014462449 0.01777497 0.05274058
0001b0 ba b4 e4 bc f7 71 7c 3a f8 b6 f5 3c 63 d0 eb 3c
       -0.027918208 0.0009630019 0.029994473 0.02878589
0001c0 de 00 83 bc f4 f2 1a bd 94 47 e7 bb 93 8c 73 3d
       -0.015991624 -0.037829354 -0.0070580933 0.059460234
0001d0 d6 0b 39 3d 9b 3b 2d 3d 3a 68 0f bd 81 83 f5 3c
       0.045177303 0.042293172 -0.035011508 0.029969933
0001e0 b4 8c da bc a2 ff 3b bd 23 77 bb 3c 21 88 4f 3c
       -0.02667842 -0.045898087 0.022883957 0.012666733
0001f0 49 6d 2f bd 72 f7 22 bd 23 39 69 bd f1 2d 6e 3d
       -0.04282883 -0.039786763 -0.056939255 0.058149282
000200 cc 22 de 3c 80 f3 2b 3c 9e 1c 0b 3d 60 8f a7 bb
       0.027116202 0.010495067 0.03396284 -0.005113527
000210 d6 fa 1f 3d 6e fd bb bc bf fb a5 bb 9c 66 25 bd
       0.039057575 -0.022947993 -0.005065411 -0.04038106
000220 b2 ff 83 bd 1e a8 b3 3c 26 1e ac 3c 35 67 2a bd
       -0.064452544 0.02193075 0.02101047 -0.041602332
000230 7c a5 37 bc 74 6f 58 3d a6 b0 37 3d a6 af 35 3c
       -0.011208888 0.052840665 0.0448462 0.011089241
000240 1e 07 28 3d 3e 2d 62 3d c9 1d fa 3c 0d da ff 3c
       0.041022412 0.055218928 0.03053178 0.031231904
000250 b3 ef 20 3c 9d e2 dc ba d7 72 7a bd bc 62 de bb
       0.009822774 -0.0016852204 -0.061144676 -0.0067866724
000260 80 a6 2e bc 1c eb 5f 3d dd 69 21 3d f1 e6 da bc
       -0.010659814 0.054667577 0.0394076 -0.02672145
000270 55 44 c3 bc 24 0e 8b 3c f9 6a 3f bd 36 70 30 3d
       -0.023836294 0.016974516 -0.046732876 0.043075763
000280 f8 b1 57 3d c7 9a 7a bd 1e 5f 52 3c 4e 1e 4f 3d
       0.05265996 -0.061182763 0.0128400605 0.05056601
000290 19 ea 01 3d f6 a0 75 bd 10 39 55 3c d3 42 62 3d
       0.031717394 -0.059967957 0.013014093 0.05523951
0002a0 77 08 88 bc ce 9c a3 bc 18 07 6c 3c 66 4c 74 3d
       -0.016605599 -0.019972231 0.014405988 0.05964317
0002b0 b9 0c b7 3c 28 ee 0a 3d 3a 1b a4 3a a3 6e 21 bd
       0.022344934 0.03391853 0.0012520321 -0.039412152
0002c0 05 49 1f bd 63 a9 31 3d 9d b4 20 bb fa 95 03 3c
       -0.038887996 0.04337443 -0.0024521716 0.008031363
0002d0 f3 3c 08 bd 7b 0a d6 3c 47 fb 3d 3a 58 37 33 3c
       -0.03326125 0.026128044 0.0007247221 0.010938488
0002e0 3d 01 ec bc ee f7 27 bb c9 91 71 3d c5 51 ff 3b
       -0.028809184 -0.0025629955 0.058976922 0.00779173
0002f0 44 6b e1 bb 78 44 b2 3c 41 97 31 bd 9e 3e be 3c
       -0.006879242 0.021761164 -0.043357138 0.023223218
000300 00 9a 63 bc e9 44 62 3d e5 b6 3a 3b 20 1a 4a bd
       -0.013891697 0.0552415 0.0028490361 -0.04934132
000310 12 fb 19 3d ce 46 05 bd 44 b3 7d bd 91 94 53 3d
       0.037592955 -0.032538228 -0.06193854 0.051655356
000320 9d 76 2b 3d 61 bf 3d 3d cd 6f 61 bd 85 f5 5b bc
       0.041861165 0.04632509 -0.055038262 -0.013425236
000330 ba 91 6f bd 90 db 82 bb c7 92 f6 3c 1d dc 7b bd
       -0.058488585 -0.003993459 0.030099286 -0.061489213
000340 9a 5d 2e bd 10 cf 40 3d 5c 1b 45 3c 0a 52 f1 3b
       -0.042569734 0.04707247 0.012030449 0.007364516
000350 de b9 29 3d ff 16 aa 3c 71 98 2d bd c3 3d 1a bd
       0.041437022 0.020762919 -0.042381708 -0.037656557
000360 f5 ce 62 bc 4c f5 31 bd 84 90 75 3d 10 0c 05 3d
       -0.013843288 -0.043446824 0.059952274 0.032482207
000370 c0 76 78 bb 00 f8 14 b9 3e 45 83 bd 32 81 01 3d
       -0.0037912577 -0.00014206767 -0.06409691 0.03161735
000380 0d 8b 6e bc ba e5 3e bd 5c f6 08 3d ee cd 78 bd
       -0.0145595195 -0.046605803 0.03343807 -0.060743265
000390 67 3d e9 bc c3 3f 15 bb 64 cc 87 bc 3e c5 51 3d
       -0.028471662 -0.00227736 -0.016576953 0.051213495
0003a0 32 9e 6d 3d 29 e2 f4 3c 63 5a 69 bd a6 68 25 3d
       0.058012195 0.029892998 -0.056970965 0.040383004
0003b0 8d be 53 bc 76 67 53 3d 8c cb 86 bc 61 00 98 bc
       -0.012923849 0.05161234 -0.01645448 -0.018554868
0003c0 4e db 89 bb 0c f6 54 3d 09 08 8e bc cc 4d 30 3d
       -0.0042070514 0.05199246 -0.017337816 0.043042943
0003d0 22 76 3c 3d 80 70 93 3b 72 5b 20 bd e7 cf 01 bd
       0.046011098 0.004499495 -0.03914971 -0.03169241
0003e0 d7 da 19 3d 2f b2 1b 3b 29 33 8d bc e4 98 bd bc
       0.037562218 0.0023757329 -0.01723631 -0.023144193
0003f0 61 30 c0 bc 41 d9 ab 3c 1d 01 64 bd 92 b5 a4 3c
       -0.023460569 0.020977618 -0.055665124 0.02010611

fc2.bias f4 [256]
000000 db 0c 49 bd b7 16 51 bd 13 9b a7 3c 08 1a 36 3c
       -0.049084526 -0.051047053 0.020459687 0.011114605
000010 52 ee 0f 3d 7b f7 0b 3d 1e 3c 6d bd 05 94 87 bd
       0.03513939 0.034171563 -0.05791866 -0.06620029
000020 29 61 3b bd 52 9c c6 3c 65 c4 7d bc 73 39 b5 bb
       -0.045746956 0.024244461 -0.015488719 -0.00553053
000030 c5 40 28 bd 2f 79 5e 3d ea 56 14 3c 98 0b fa bc
       -0.041077394 0.05431479 0.009053925 -0.030523106
000040 26 9a 96 3d f1 b1 51 bd a0 11 38 bd d4 ac 08 3c
       0.0735362 -0.05119509 -0.044938684 0.008341987
000050 5d d6 c1 3c 39 dd 04 3d e3 c8 05 3c be 6c 3c bc
       0.023661787 0.032437537 0.008165571 -0.0115005355
000060 fb 0f 72 3d 64 40 17 bd 1c d1 fb bc 62 58 30 3d
       0.05909727 -0.036926642 -0.03073936 0.04305304
000070 7d 1d d7 3c 2f 6a dd 3c a8 5f 4c 3b 98 61 87 3c
       0.026259178 0.027028171 0.0031184945 0.016526029
000080 28 9d 23 bd 3c cd 50 bd 9e 99 60 3d 5b ed 4f bd
       -0.039944798 -0.050976977 0.054834 -0.05076347
000090 5c 43 5e 3d 80 86 1e bd 3e 14 38 3d d0 b7 a8 bb
       0.054263458 -0.038702488 0.04494118 -0.0051488653
0000a0 55 22 4d 3d 35 86 26 bc fd 54 4b bd 24 7b 3c bd
       0.05008157 -0.010163833 -0.049641598 -0.046015874
0000b0 1b 6f 36 3d eb 3e 17 3d 5d 15 17 bd e6 80 94 bc
       0.044539552 0.036925238 -0.036885608 -0.01812787
0000c0 96 cd 9a 39 e1 59 b0 3c 49 8a 3b bc 88 e1 77 3d
       0.00029526342 0.021527233 -0.011446544 0.060517818
0000d0 14 15 48 b9 34 02 ea 3c 2a 26 5c 3d 2c 02 a4 3c
       -0.00019081339 0.028565504 0.053747334 0.020020567
0000e0 b9 8e 44 3d 11 d7 46 bd 0a ff 4b 3d 28 5f bb 3c
       0.047987673 -0.048544947 0.04980377 0.022872522
0000f0 ca ad 37 3d a6 66 9c 3c a0 49 54 bd 75 1d 89 bc
       0.044843473 0.019091915 -0.051828027 -0.016737679
000100 5d d1 30 bd aa a8 9a bc 33 f0 30 bd f6 b5 74 3d
       -0.043168414 -0.018879253 -0.04319782 0.059743844
000110 c7 d8 af bc 2f cd f9 bc c1 1c 16 bd 46 17 2e bd
       -0.021465672 -0.030493347 -0.036648516 -0.042502664
000120 9a 74 4f 3d 15 e9 81 3d 89 60 16 bd 0d fc 01 3c
       0.05064831 0.06343285 -0.036713157 0.007933629
000130 d0 99 87 bd 72 5c 16 3d 81 4b 3c 3c f8 c3 16 bd
       -0.06621134 0.036709256 0.011492611 -0.036807984
000140 dd 48 06 bd a9 d2 5b bc f9 13 de bb 32 e8 2f bd
       -0.03278433 -0.0134169245 -0.0067772833 -0.042946048
000150 1f 58 1b bd f6 56 89 bd 3b 1d 2d bd 13 8c f8 bc
       -0.037925836 -0.067060396 -0.042264204 -0.03034023
000160 c7 2a c3 3c e4 c7 45 bc 0f 78 61 3d 34 c6 2f 3c
       0.023824109 -0.012071583 0.055046137 0.010728408
000170 10 ee d1 3c a3 06 f6 3c a5 c4 30 bd 2e f3 dc bb
       0.025626212 0.030032462 -0.043156285 -0.0067428565
000180 be 04 1e bd 2d 7a 89 3d b3 89 85 bd c4 4a af bb
       -0.03857874 0.06712756 -0.06520405 -0.005349489
000190 11 7d 84 3d 50 95 4f 3d 68 56 8a 3c 79 59 73 3d
       0.06469167 0.050679505 0.016886905 0.0594115
0001a0 0b 93 6a 3d c9 bf b6 bc 83 0c 21 3d 76 30 f4 3b
       0.057269137 -0.022308247 0.039318573 0.007452066
0001b0 a7 33 07 3d e2 5f 84 3d fd 37 97 3c bc cf 6d bd
       0.033008244 0.06463601 0.018459314 -0.05805944
0001c0 61 3f 14 bc 75 4c 15 bd 9f 95 99 3d f5 ba aa 3c
       -0.009048314 -0.03644987 0.07499241 0.020841101
0001d0 41 27 1d bd 3c f4 9c bc 8b b7 d2 bc bc 14 50 ba
       -0.038367514 -0.019159429 -0.025722286 -0.000793766
0001e0 da a9 ea 3c ba ae 16 3d f8 ae 7c 3d ed 6c 74 bd
       0.028645445 0.036787726 0.0616903 -0.059674192
0001f0 fe 26 71 3d 7e c9 dd 3c d6 84 98 3c b2 a3 36 bd
       0.058875076 0.027073618 0.018618029 -0.044589706
000200 7d 45 70 bc e3 95 5a 3d 34 ee bc bc a4 35 a2 bc
       -0.014665005 0.0533656 -0.023062803 -0.019800968
000210 d4 54 ac 3a 01 68 4e 3d 3e 09 3f 3d b7 97 5f bc
       0.0013147839 0.050392155 0.046639673 -0.0136470115
000220 84 db e5 bc 62 ae b8 bc a7 c6 e3 bc 74 53 5d bd
       -0.028058775 -0.02254409 -0.027804686 -0.054034665
000230 0d 15 71 3b 34 a9 42 bc 68 8e 80 bd a6 fa 12 bd
       0.003678623 -0.0118811615 -0.06277162 -0.03588357
000240 93 c6 9f bc 70 1d b0 bc 8a cb 21 bd 77 09 02 3d
       -0.019503867 -0.021498412 -0.03950075 0.031747308
000250 00 80 72 bd df 4b 10 3d 48 b2 56 3d ef 64 26 3b
       -0.0592041 0.035228606 0.052416116 0.002538975
000260 46 73 2c 3d 38 66 2b bd c6 f7 82 3d de 3b 8a bc
       0.04210212 -0.04184553 0.06394915 -0.01687425
000270 71 b2 01 3d 4c c1 84 bc 6f 1f d7 3b 3a 5c 3e 3d
       0.031664316 -0.016205452 0.0065650265 0.046474673
000280 f5 ad 50 bd 79 3a 68 bb f5 90 13 3d 49 4e ba bb
       -0.05094715 -0.0035435243 0.036026914 -0.005685602
000290 ef f9 c4 bb ce e3 96 bb e6 18 11 bd d5 3a 49 3c
       -0.0060112397 -0.004604793 -0.035424136 0.012282093
0002a0 02 29 8d bb 5c 56 7b bd dc 17 1c 3c 06 41 2e bd
       -0.004307867 -0.061361656 0.009527173 -0.04254248
0002b0 b1 22 d3 bc da b8 ab bc e1 42 34 bd cd 62 16 3c
       -0.025773378 -0.020962168 -0.044009093 0.009178829
0002c0 b1 83 08 3c c2 4b e1 3c ab 44 79 3d 35 12 5c bd
       0.008332179 0.027501944 0.060856503 -0.0537283
0002d0 09 7c 1f bc 82 d6 ab 3b cb e6 68 3d de 51 95 3d
       -0.009734162 0.005244077 0.056860726 0.072910056
0002e0 48 78 a9 ba 0a 50 20 bd f3 9e 54 3c 38 67 b9 3c
       -0.0012929523 -0.03913883 0.01297735 0.022632226
0002f0 7f d5 91 bc 66 51 cf bc 73 c9 64 3d 7d 46 75 bc
       -0.017801998 -0.025307368 0.05585618 -0.014970419
000300 7d ee 5d 3d 51 87 ae bc fd b9 8a 3c c8 41 02 bd
       0.05418252 -0.021304758 0.01693439 -0.031801015
000310 95 dd 6c bc bd 90 7b ba 65 99 4b 3d 8c 69 10 3d
       -0.014457126 -0.0009596458 0.049706835 0.035256907
000320 bc 42 1b bd d5 26 16 bb 31 1c 4d bd f7 28 36 bd
       -0.03790544 -0.002291133 -0.050075714 -0.04447266
000330 18 c6 5d 3a 88 46 65 bd 44 45 7d bc 8a 82 fe bc
       0.0008459999 -0.055975467 -0.015458409 -0.031068105
000340 53 50 4b 3d 89 eb 92 ba 8e e3 5c bd d3 8c 39 bd
       0.04963715 -0.0011209111 -0.05392795 -0.045300316
000350 d5 cd d4 bc e0 87 16 bd 94 11 25 3d 9e 46 60 3d
       -0.025977055 -0.036750674 0.040299967 0.054754846
000360 27 4f 0e bc 84 5e f2 3c e6 d2 7f 3d 71 98 3b 3d
       -0.008685864 0.029586084 0.062456988 0.045799676
000370 54 48 0f bc 4b 10 f1 3c 1b cb 10 bd 7a 71 41 3d
       -0.008745272 0.029426714 -0.035349946 0.04722736
000380 a9 71 8e 3b f9 ad 88 bc 0b 70 36 bd e7 e3 8e bc
       0.0043470454 -0.01668452 -0.044540446 -0.017442657
000390 58 e6 27 bd ea 3b 2a 3b 38 16 11 bd bc 8d 71 bd
       -0.040991157 0.0025975653 -0.03542158 -0.05897306
0003a0 19 8d 18 3d 85 5a 28 3d 9e a6 5b bc 41 93 14 bd
       0.037243936 0.04110195 -0.013406424 -0.036273245
0003b0 b8 e7 5a 3d 74 f8 bc 3b 45 4e fb 3c a6 e8 d9 3c
       0.05344364 0.0057669226 0.03067697 0.026600193
0003c0 0d 38 1f 3d 81 bc f6 bc a7 c0 52 bd bc 1a 53 bd
       0.038871814 -0.030119183 -0.05145326 -0.051539168
0003d0 f0 57 4b bd a5 21 90 bc 9a 0c ef 3c 8d 9d e6 bb
       -0.04964441 -0.017594168 0.029180814 -0.0070378245
0003e0 14 51 42 3d 71 da 98 3c 10 c1 04 3d 68 86 9b bc
       0.047440603 0.018658848 0.03241068 -0.018984988
0003f0 80 88 73 3d e5 af 70 bd fe 33 05 bd 57 77 5e 3d
       0.05945635 -0.058761496 -0.032520287 0.05431303

fc3.weight f4 [256, 256]
000000 c0 41 86 3a 56 7c 47 bd 04 eb 37 3d d4 5d 84 bc
       0.0010242984 -0.04870256 0.044901863 -0.016158022
000010 ac 9c 86 bc 94 6d e9 3c 20 38 58 bb 58 21 7c 3c
       -0.016432129 0.028494634 -0.0032992437 0.015388809
000020 b2 79 10 3d b8 3f ad bc 68 b7 26 bc ce 18 78 bd
       0.035272308 -0.021148548 -0.010175563 -0.06057053
000030 34 bc 9e 3c ac e8 9c 3c 4e fa 5b 3d 78 dc 48 bc
       0.019376852 0.019153915 0.053705506 -0.012259595
000040 e2 8a 0f 3d 6c c5 6c 3d 28 f2 45 3c 1a d8 61 3d
       0.03504456 0.057805464 0.01208166 0.05513773
000050 20 50 e8 3b 88 8d a2 3c c8 1c bd 3c 90 9c 3d bd
       0.00708963 0.019842878 0.023085013 -0.046291888
000060 80 fc e9 bb 78 2f 11 bd b2 61 3d bd d4 62 70 3d
       -0.007140696 -0.03544566 -0.046235748 0.058688
000070 f0 de 0b bc 7c 65 64 bd 76 c1 40 3d 72 64 7c bd
       -0.008537039 -0.055760846 0.0470595 -0.06161923
000080 9c 20 23 3d d8 27 13 bd c0 91 ff 3a ac 77 99 3c
       0.03982602 -0.03592667 0.0019498393 0.018733822
000090 30 09 e8 3c ae ac 4b bd 20 21 d9 bb b8 a8 61 bc
       0.028324693 -0.049725227 -0.0066262633 -0.013773136
0000a0 aa 68 56 3d 60 25 6e 3c 80 c2 02 3c 26 86 6d 3d
       0.05234591 0.014535278 0.007980943 0.057989262
0000b0 3c f4 f5 bc 1c b6 83 3c d8 40 7d 3c 90 bf 6e bd
       -0.030023687 0.016078047 0.0154573545 -0.058288157
0000c0 80 94 e1 bc 72 00 61 bd a0 e1 1c 3b 88 a9 23 bc
       -0.02753663 -0.054932065 0.0023938194 -0.00998915
0000d0 20 dd 57 3b ca db 78 3d 58 0a c2 bc 40 f6 03 bd
       0.0032938197 0.060756482 -0.023686573 -0.032217264
0000e0 68 00 c8 3c f6 2e 6f bd dc 27 ce 3c 9c ab cc 3c
       0.024414256 -0.058394395 0.02516549 0.024984173
0000f0 30 97 98 bb 10 26 c9 bc a0 7d a7 bc 7c 3d a8 bc
       -0.004656695 -0.024554282 -0.020445645 -0.02053713
000100 80 67 88 3b a0 3d e3 3b f2 85 76 3d 58 ac 38 3c
       0.004162729 0.0069348365 0.060186334 0.011271559
000110 08 e4 0c bc fc 5b a6 3c 54 2b f0 bc 50 39 9e 3c
       -0.008599289 0.020307533 -0.029317535 0.019314438
000120 14 29 e8 bc 64 50 8f 3c 00 48 4e 3c 62 f2 3c 3d
       -0.0283399 0.017494388 0.012590408 0.04612959
000130 d2 77 61 3d 80 93 17 bb a0 fc c3 3b 9a e6 21 3d
       0.05504591 -0.0023128688 0.005981043 0.03952656
000140 98 28 f5 3c bc 98 b9 bc 10 04 14 3d 6c bb 47 bd
       0.029926583 -0.022655837 0.036136687 -0.048762724
000150 36 bf 79 bd 40 2e 6e 3d 80 b0 58 bc 38 30 bc 3c
       -0.06097337 0.058149576 -0.013225675 0.022972211
000160 2a 07 43 3d 00 e6 b8 ba 68 64 2e 3d 38 1b 5b 3c
       0.047614254 -0.0014106631 0.042576224 0.013373189
000170 6c c6 7b 3d b0 9c 87 bb b8 25 e1 3c 98 14 13 3d
       0.061468527 -0.0041385517 0.027483806 0.03590831
000180 14 6f 8e bc 4e f0 7d 3d f0 0f 8a bc d0 37 ee 3c
       -0.01738695 0.06199675 -0.016853303 0.029079348
000190 a6 6a 2b 3d 5c 1b 8e bc 20 15 a1 bc a4 99 37 bd
       0.041849755 -0.01734703 -0.019663393 -0.044824257
0001a0 44 c7 67 bd 30 a1 1d bc 96 29 71 3d c4 61 b4 bc
       -0.05658652 -0.00962095 0.05887755 -0.022019275
0001b0 90 e9 b8 bc 2c 1c 91 3c a8 ff a2 3c 96 bc 09 bd
       -0.022572309 0.017713629 0.019897297 -0.033627115
0001c0 42 23 1d 3d d8 29 3e bd a4 15 4d bd e0 43 3b 3b
       0.038363703 -0.046426624 -0.050069466 0.0028574392
0001d0 40 b9 6e 3c d8 4c 61 3d a4 31 fc 3c 14 9f a2 bc
       0.014570534 0.055004925 0.03078539 -0.019851245
0001e0 d0 2f ef bb f0 82 90 3c 08 8b 34 bc 80 aa 8c 3a
       -0.007299401 0.01764056 -0.011019476 0.0010731965
0001f0 d0 5b 86 3c 30 8b ba 3b dc c5 51 3d 84 8b 4e bd
       0.016401201 0.005692862 0.051214084 -0.05042602
000200 3a 8c 06 3d b8 30 a4 bc d8 8f 44 bc 5e 96 32 bd
       0.032848574 -0.020042762 -0.011997186 -0.043600433
000210 28 b5 46 3c 9c 11 03 3d fc 01 13 3d 98 e4 62 bd
       0.012128152 0.031999215 0.035890564 -0.055393785
000220 d0 5a 82 bc 34 fd e9 3c c6 74 61 3d 38 e8 f2 bc
       -0.015912443 0.02856312 0.055043004 -0.029651746
000230 48 2b 18 bc 1a 6b 1d bd 68 75 77 bd 46 f2 13 3d
       -0.009287663 -0.038432218 -0.0604147 0.03611972
000240 c0 e2 c2 3b b0 97 a4 3c b6 72 4f 3d e8 ae b7 3c
       0.005947441 0.020091861 0.050646506 0.022422269
000250 8e 34 21 bd 18 6b 68 3d 3e 5e 11 bd ca 61 5b bd
       -0.03935676 0.056742758 -0.035490267 -0.053560056
000260 00 8f 6f bc 7c 69 28 bd d8 8a 0c bd 1e 7e 11 bd
       -0.014621496 -0.041116223 -0.0343121 -0.035520665
000270 fa 4f 40 bd f8 67 78 bc 92 31 53 bd 80 f1 66 bb
       -0.04695127 -0.015161507 -0.051560946 -0.003523916
000280 08 1d 05 3d 00 3d ba 3b 98 a3 92 bc 1e 07 4e bd
       0.03249839 0.0056835413 -0.017900273 -0.050299756
000290 d4 eb 8d 3c e8 b2 37 bd 92 ff 1d bd 60 53 83 bc
       0.017324366 -0.044848353 -0.03857381 -0.016030967
0002a0 cc 7f 02 3d a0 54 0b bb 3c 02 8b bc 8a 52 3e 3d
       0.031860158 -0.0021260157 -0.016968839 0.046465434
0002b0 c2 7e 3a bd a0 90 00 3d 68 ea 92 bc 5c fa 37 bd
       -0.045531042 0.031387925 -0.01793404 -0.044916496
0002c0 88 03 66 3c 14 bd 45 3d 00 2a de 39 1a 9e 12 3d
       0.014038928 0.048276022 0.00042374432 0.03579531
0002d0 32 f9 00 bd 32 b1 35 bd e4 37 07 bd 30 fb 38 3c
       -0.03148765 -0.04435844 -0.033012286 0.0112903565
0002e0 be 9c 50 3d fe 41 36 bd d0 38 f6 bb c0 60 1d 3b
       0.05093073 -0.04449653 -0.007514097 0.0024013966
0002f0 80 5d 16 ba 20 40 22 3d 98 8e eb 3c a2 c5 49 3d
       -0.00057359785 0.039611936 0.028754517 0.049260743
000300 24 cb 9a bc 00 c3 b1 3a 82 da 3a 3d 28 b3 fc bc
       -0.018895693 0.0013562143 0.04561854 -0.030847147
000310 80 df 6e 3d e4 d7 17 bd 70 ac 23 bd 44 ac 7f 3d
       0.058318615 -0.037071124 -0.03995937 0.062420145
000320 ac 64 da bc b8 f9 1f 3c 60 a9 69 bb d8 55 77 bc
       -0.026659332 0.009764127 -0.0035653934 -0.01509615
000330 10 b8 4d bd 24 5e be bc d0 f3 cd bc 68 1e 45 bd
       -0.050224364 -0.02323825 -0.025140673 -0.0481247
000340 6c f3 93 bc 80 77 eb ba 90 7b b1 bc e0 b5 49 3c
       -0.018060409 -0.0017964691 -0.021665365 0.012311429
000350 98 aa 1f 3c 4a 23 21 bd 9a a9 7c bd 26 2f 3e bd
       0.009745263 -0.039340295 -0.061685182 -0.046431683
000360 a2 4c 5c bd 32 29 44 bd 78 d8 6e 3c 74 65 83 3c
       -0.05378402 -0.04789085 0.014577977 0.016039588
000370 d2 cf 72 bd 30 2c 63 3c 70 83 0f 3d ea 29 39 bd
       -0.059280224 0.013865516 0.035037458 -0.045205988
000380 d0 af e9 bc f8 4c 09 bd 40 fa dd 3c 26 d7 03 3d
       -0.028526217 -0.03352067 0.027096868 0.032187603
000390 2a 2c 4c bd a6 32 5b bd 20 5c 11 3b e0 f3 da 3c
       -0.049846806 -0.0535151 0.0022180155 0.026727617
0003a0 40 83 7e bd b0 6b 4b 3c 9a 34 39 3d 64 ee a9 bc
       -0.06213689 0.012415811 0.04521618 -0.020743556
0003b0 32 3f 66 3d 8c 50 1a 3d e8 a1 e4 3c 48 f5 49 3d
       0.05621261 0.03767447 0.027909234 0.049306184
0003c0 9a 48 37 bd 20 e4 0d bd 00 84 d2 bc 80 bf 7e ba
       -0.044746973 -0.034641385 -0.025697708 -0.0009717867
0003d0 56 88 0b 3d 18 f7 52 bd 50 9c 2d 3c 7e 1d 7c 3d
       0.034065567 -0.05150518 0.01059635 0.061551563
0003e0 14 33 ba 3c 70 8d 98 3c 2e e3 3d 3d 00 4d 04 bd
       0.022729434 0.01862213 0.046359234 -0.032299995
0003f0 5e 62 3c bd 92 33 5a bd da 1d 5c bd 36 3e 7c 3d
       -0.045992248 -0.053271838 -0.053739406 0.061582766

fc3.bias f4 [256]
000000 32 ee 06 3d 54 79 bb 3c 3a d6 43 3d 40 d8 9f 3c
       0.032942005 0.022885002 0.047811724 0.019512296
000010 28 f9 15 3c 50 29 a6 bc 60 5f bf bc 28 d7 1b bd
       0.009153642 -0.020283371 -0.023360908 -0.038046986
000020 10 2c d8 3c de 86 2d bd a8 7b c0 3c d4 dc 0d 3d
       0.026388198 -0.042364947 0.023496464 0.034634426
000030 78 64 d4 3c 56 be 01 bd 90 c7 d9 3c c6 99 50 bd
       0.025926813 -0.03167566 0.026584417 -0.0509279
000040 7a 60 22 bd 4a 3b 09 bd 60 14 92 bc dc ad a6 bc
       -0.03964279 -0.033503808 -0.017831981 -0.020346574
000050 24 05 98 bc 26 c6 36 3d 7a e7 49 bd 64 ed 72 bd
       -0.018557139 0.044622563 -0.04929302 -0.059308425
000060 6a 98 35 bd 08 c1 fb 3c d0 2d cb bb 0a 8b 0c bd
       -0.044334807 0.030731693 -0.0062005296 -0.034312285
000070 f0 03 49 3d 7c 9c 62 3d ac 6e 39 bd 30 b6 ac bb
       0.04907602 0.055325016 -0.04527156 -0.005270742
000080 4e 68 51 3d 08 54 10 3d c4 98 7c 3d 00 03 dd bc
       0.051124863 0.03523639 0.061669126 -0.02697897
000090 e8 f5 65 3d 98 40 50 3c de aa 49 bd 3c ae bc bc
       0.056142718 0.012710713 -0.049235217 -0.0230323
0000a0 80 5e aa 3b f0 74 4a bc 08 eb af 3c 62 d7 0f bd
       0.0051992536 -0.012356982 0.021474376 -0.035117514
0000b0 ac ec cf 3c 2a 2e 1d 3d 30 31 fc bc 90 1e 98 3c
       0.025381409 0.038374104 -0.030785173 0.01856926
0000c0 86 d5 6f bd 6c b6 15 3d 38 fa 47 3d 44 ae c1 bc
       -0.05855324 0.036550924 0.04882261 -0.023642667
0000d0 44 8b c7 3c 36 3d 1c bd fc f7 97 3c 68 a2 7c bd
       0.0243584 -0.038144313 0.018550865 -0.06167832
0000e0 fc f0 56 bd 30 d0 8d 3b 62 3c 70 bd 90 ba 9f 3c
       -0.052475914 0.0043277964 -0.058651336 0.01949814
0000f0 6a 65 3d bd d0 1a 64 3d 82 f6 0d bd 2c 94 c9 3c
       -0.046239294 0.055689633 -0.034658916 0.024606787
000100 a0 69 5c bc 16 19 07 bd e8 31 63 3d d0 68 f6 bc
       -0.013452917 -0.03298291 0.055467516 -0.030079275
000110 00 70 74 bd 72 70 2d 3d cc 41 5c bd 54 d6 20 bd
       -0.059677124 0.042343564 -0.053773686 -0.0392669
000120 86 a4 00 3d 3a f6 71 3d 50 6a 4b bc 18 14 f8 bc
       0.0314069 0.05907271 -0.012415484 -0.030283019
000130 50 86 08 3c 08 4b 26 bd 10 29 e1 3c 28 c5 2d bc
       0.008332804 -0.0405989 0.0274854 -0.010606088
000140 34 f3 b8 bc 70 54 f7 bb f4 a3 39 bd a8 a4 03 bd
       -0.022576906 -0.0075479075 -0.045322374 -0.03213945
000150 00 af 9f 3c bc a8 a1 bc c8 cf 77 bd a8 8b 5e bc
       0.019492626 -0.01973378 -0.06050089 -0.013583101
000160 88 9b 05 3d f0 83 33 3d f4 12 6e 3d d8 53 f0 bc
       0.03261903 0.043826997 0.058123544 -0.029336855
000170 24 44 ac bc 3e 98 19 bd 1c 93 85 3c e0 6a 3b bc
       -0.021028586 -0.037498705 0.016305499 -0.011439055
000180 c0 65 d8 bb c6 b8 03 3d 4c b8 22 bd bc 4d 08 bd
       -0.0066039264 0.032158636 -0.03972654 -0.03327726
000190 48 21 68 bd 50 3f 64 3c c4 f5 57 bd 00 74 66 bb
       -0.056672364 0.0139311105 -0.052724615 -0.0035164356
0001a0 20 60 4b 3b 20 37 0a bc 60 81 40 3d 46 77 5e 3d
       0.0031032637 -0.008435994 0.04699838 0.054312967
0001b0 28 53 70 3c 0c a3 11 bd 60 47 ea bb e6 72 4d 3d
       0.0146682635 -0.035555884 -0.007149622 0.050158404
0001c0 ee bb 03 bd 5a e0 48 bd 50 d5 97 bc 80 11 35 3c
       -0.032161646 -0.049042083 -0.018534333 0.011051536
0001d0 c0 72 94 bb d0 91 f5 3c 16 a1 31 3d b8 31 86 3c
       -0.004530281 0.029976755 0.043366514 0.01638113
0001e0 d8 87 30 3d ec 44 6e 3d fa 61 70 3d 40 ea 03 bd
       0.0430983 0.058171198 0.058687188 -0.03220582
0001f0 b2 7d 36 bd 44 5f a2 bc d4 51 b2 bc 4c 65 de 3c
       -0.044553466 -0.019820817 -0.021767534 0.027147911
000200 40 93 47 3d d8 66 af 3c 50 87 2e 3c 04 68 0f 3d
       0.048724413 0.021411344 0.010652378 0.035011306
000210 38 e0 8b 3c 40 88 3d bd f8 4a 8d bc 48 b4 9f bc
       0.01707469 -0.046272516 -0.017247662 -0.019495144
000220 88 75 40 bd f6 89 79 3d 18 cb 30 bc fc fb e5 3c
       -0.046987087 0.060922585 -0.010790609 0.028074257
000230 0c e9 00 3d 04 39 6d 3d d0 51 10 bc 4a 65 73 3d
       0.03147225 0.057915702 -0.008808568 0.05942277
000240 8c 57 da 3c c4 ce 7f bd 78 3c 98 bc e0 43 62 3c
       0.026653074 -0.062453046 -0.018583521 0.013810128
000250 88 05 23 3d 70 4a 7c bd 38 89 7b 3d 64 34 89 3c
       0.039800197 -0.061594427 0.06141016 0.016748615
000260 c0 66 88 bc d4 15 ce bc 00 3c c3 3c 30 ed 56 bd
       -0.016650558 -0.025156893 0.023832321 -0.052472293
000270 96 de 69 bd 60 7f f8 3b 36 66 2b bd e0 7e fe bc
       -0.05709704 0.0075835437 -0.041845523 -0.031066358
000280 d0 34 9b 3b 80 dd 70 bc 08 66 59 bc d0 5c 24 bc
       0.0047365203 -0.014701247 -0.013268955 -0.010031894
000290 60 9d 70 3d 1c ae 4f bd 96 7a 59 bd 6c 58 6f 3d
       0.058743834 -0.050703153 -0.053095423 0.058433935
0002a0 e2 ba 6d 3d 6c 6d 44 3d 80 31 f0 3a f0 d8 dc bb
       0.058039553 0.047955915 0.0018325299 -0.006739728
0002b0 44 15 8f bc 40 00 10 bc a0 a9 e0 3b 7e 44 2b bd
       -0.017466195 -0.008789122 0.0068561584 -0.041813366
0002c0 80 b2 2a 3b f2 5d 50 3d c8 57 38 bc cc 62 6a bd
       0.0026046336 0.050870843 -0.011251397 -0.057223126
0002d0 a4 1a e9 bc 08 52 45 bd 54 e0 74 3d 40 9f 92 3c
       -0.028455086 -0.048173934 0.05978425 0.017898202
0002e0 ea 11 22 bd 52 ca 14 bd 26 89 66 bd be aa 72 bd
       -0.039567865 -0.03632576 -0.05628314 -0.059244864
0002f0 94 54 98 3c b6 81 15 3d ee 42 45 bd 6c a9 df bc
       0.018595017 0.036500655 -0.048159532 -0.027302466
000300 00 c9 5e bd d0 cf e5 3c 14 48 c8 bc 94 9d 7c bd
       -0.054390907 0.028053194 -0.024448432 -0.061673716
000310 06 13 28 bd 34 d4 58 bd 66 b8 78 bd 80 97 ab bc
       -0.041033767 -0.052936748 -0.06072273 -0.020946264
000320 e2 45 65 bd 18 35 10 bd f8 bf 11 bc 06 c1 6c bd
       -0.05597485 -0.035206884 -0.008895867 -0.05780127
000330 e0 be 35 3c 68 e3 4d 3c d6 bc 33 3d 28 c3 ba 3c
       0.011092871 0.012566425 0.04388126 0.022798136
000340 e2 f9 25 3d 02 ca 49 bd 40 89 42 3d 90 78 78 bc
       0.04052151 -0.049264915 0.047494173 -0.015165463
000350 e2 e2 77 bd ae 11 1c 3d c2 90 70 3d d2 8f 2d 3d
       -0.060519107 0.0381028 0.0587318 0.042373486
000360 ae 56 5c 3d b0 6f 70 3d fc dd 1d bd 00 fd e1 3a
       0.0537936 0.058700264 -0.03854178 0.0017241538
000370 04 ff 32 bd 12 25 21 bd 2e c5 57 bd 64 d4 8a bc
       -0.043700233 -0.039341994 -0.05267828 -0.016946979
000380 12 e1 20 bd 94 98 0b bd ea fe 12 3d e8 a9 19 3d
       -0.039277144 -0.034081057 0.035887636 0.03751555
000390 00 7e 62 3b 3e 92 34 3d 60 4e 43 bb e4 82 6c bd
       0.0034559965 0.04408478 -0.0029801354 -0.057742015
0003a0 9c d7 9d bc 1e 83 41 bd 6c 40 5e 3d 32 25 23 bd
       -0.01926785 -0.047244184 0.054260656 -0.039830394
0003b0 1e a6 62 bd 24 24 01 bd e8 3a 12 bd a0 7e dc bb
       -0.055334203 -0.031528607 -0.03570071 -0.006728962
0003c0 a0 31 59 bd fa 9e 03 bd 10 bc 1f 3d 88 44 b0 3c
       -0.05302584 -0.032134034 0.03899771 0.021517053
0003d0 80 22 73 bb fc 7b b1 3c f8 36 51 bd 00 88 56 39
       -0.003709942 0.021665566 -0.051077813 0.00020459294
0003e0 b0 60 00 3c c0 01 79 3d 28 7b 38 3c 88 d9 25 3c
       0.007835552 0.060792685 0.0112598315 0.010122664
0003f0 60 ca 0a 3b 5c 57 79 bd 12 62 2c bd e4 15 58 3d
       0.0021177754 -0.060874328 -0.042085715 0.05275525

fc4.weight f4 [14, 256]
000000 53 8d 34 bd c2 c7 e5 bc 6f 2e dc bb 1f 1a 1a 3d
       -0.04408009 -0.028049354 -0.0067194025 0.037622567
000010 00 9d 15 3c da 26 6a bd 45 5e 36 bb 4b f9 1d 3d
       0.00913167 -0.057165958 -0.0027827185 0.038567822
000020 3c 67 f2 3c ae 1d b7 bc 86 46 6b 3c 71 dc 77 3c
       0.029590242 -0.02235302 0.014360076 0.015128241
000030 8a 47 34 3d 02 83 0e bd 12 00 10 3d c0 26 4e bd
       0.044013537 -0.034792908 0.035156317 -0.050329924
000040 09 c7 1c bb b2 12 2f 3d 10 ed 76 bd 60 75 ff bb
       -0.0023922345 0.04274244 -0.060284674 -0.0077959746
000050 78 dc 27 bd 20 b5 48 3c 15 74 4e 3d 30 74 26 3d
       -0.04098174 0.012250215 0.050403673 0.04063815
000060 8f 9f e0 bb bb 23 72 bc a1 c0 4b 3d ef aa 63 bd
       -0.0068549584 -0.014779027 0.049744252 -0.055582937
000070 3c a8 df 3b 88 29 27 3d 9b 42 e5 3c 8c fa 87 3c
       0.006825475 0.04081109 0.027985862 0.016598962
000080 0a d6 14 bc 37 35 18 3d a8 fe b2 3c 88 0c 04 3b
       -0.009084234 0.037160125 0.021849945 0.002014907
000090 ed 81 87 bc 0d 63 6b bd b6 57 87 bc bc 18 b3 3c
       -0.016541446 -0.05746751 -0.016521316 0.02186238
0000a0 88 0b d7 3b 06 8f 65 3d c7 db 5e bd a4 2f 4a bd
       0.006562654 0.0560446 -0.054408815 -0.04936184
0000b0 c0 bf e5 bc a4 69 27 bd a2 7c f7 bb c0 e4 44 bc
       -0.028045535 -0.04087223 -0.007552699 -0.012017429
0000c0 73 c5 6f 3d 5a 3b a5 3c ef ea 39 bc 00 da 70 3d
       0.05853791 0.020169903 -0.011347516 0.05880165
0000d0 b7 3c 25 3c a5 7a 75 bd 3d f8 25 3d f6 8c 55 3c
       0.010085276 -0.059931416 0.04051994 0.013034096
0000e0 d7 23 d6 3c 4d 87 6c bd ec 3f 5b 3b b0 df ef 3b
       0.026140137 -0.05774622 0.0033454848 0.007320367
0000f0 a7 6d 28 bd 93 e8 ba 3b f9 71 38 bd ee fb 78 3d
       -0.041120198 0.0057039945 -0.045030568 0.060787134
000100 f7 56 c0 3c 87 ff 8c 3c 12 b5 07 bc 08 dd 94 3c
       0.023478968 0.017211689 -0.008282917 0.018171802
000110 ef dd 71 3c 7e d6 a6 bb ac 34 fe bc 96 75 38 bd
       0.014762386 -0.0050914874 -0.031030975 -0.045034014
000120 1a 82 1b 3d e4 93 60 bd d3 da 1a bd 93 4a 35 3d
       0.03796587 -0.05482854 -0.037806343 0.044260573
000130 2a e6 28 3d 64 7c 37 bd 71 dd f8 3c b0 27 10 3b
       0.041235127 -0.044796363 0.030379029 0.0021996312
000140 cf 66 d7 3c d2 e6 96 3d b8 f5 42 bd 6d ee 10 3b
       0.02629414 0.07368244 -0.047597617 0.002211477
000150 80 ff 5e 3d 52 5f 38 3b 2c 11 f0 3c 1c 75 4a bd
       0.054442883 0.0028132987 0.029305063 -0.04942809
000160 8b 1f 0d bd 69 36 5d 3d eb cf 78 bc a6 5b 95 bc
       -0.03445391 0.054006968 -0.01518629 -0.018232178
000170 ca 5f 88 ba 59 91 ab bb 9e 47 1d bd 1b 28 31 bd
       -0.0010404524 -0.0052358327 -0.038398378 -0.04325114
000180 96 30 16 3d 9c 3a 1b 3d 66 ab 69 bd 08 9b d5 bc
       0.03666743 0.03789769 -0.057048224 -0.026074901
000190 4a ac fa bb cf 45 43 3d 4f c1 0e bb 15 4e 7d bb
       -0.007649933 0.047673997 -0.0021782701 -0.0038651277
0001a0 38 f2 bd bc 39 6e 52 bb a8 5c 85 3c bd d8 b5 3b
       -0.023186788 -0.0032109155 0.016279534 0.005549519
0001b0 5e e5 08 3c 71 fc 63 3d e7 12 36 bc 3e e6 19 3d
       0.008355467 0.05566067 -0.011112905 0.03757309
0001c0 a6 93 6b bd 52 80 67 bd 26 11 7a bb 7d 74 08 bd
       -0.057513855 -0.05651886 -0.0038157194 -0.033314217
0001d0 2c 2e 28 bc e0 a6 61 bb cf 44 83 3d 32 ce 0a 3d
       -0.0102649145 -0.003443174 0.064096086 0.03388805
0001e0 9d df 95 3c 39 9b 7a 3d ad 66 db 3b 0a 22 50 3d
       0.018295104 0.061183188 0.0066955895 0.050813712
0001f0 a7 2e 15 bc 00 e7 c1 bc db cb fe 3b 8b b8 24 bd
       -0.009105361 -0.02366972 0.0077757663 -0.040215056
000200 aa 46 8b bd 13 aa ef 3c d2 98 24 3d b3 36 41 3d
       -0.068005875 0.029255902 0.040184803 0.047171306
000210 d4 86 0e 3d 3f 25 12 3b db e4 43 bd b9 ec 0d bd
       0.03479655 0.0022300032 -0.047825675 -0.034649584
000220 02 0b fd bc 6f 64 77 bd 59 ba 86 3d 63 7c 1c 3d
       -0.030889038 -0.060398515 0.06578512 0.038204562
000230 b6 39 33 bc 85 0c e3 bd 10 fe 30 bd 4e 7c 36 3d
       -0.010939052 -0.11086372 -0.043211043 0.04455214
000240 74 98 6d 3c 45 28 21 3d aa 63 61 bd 4f c1 6e bd
       0.01450168 0.039345045 -0.055026688 -0.058289822
000250 06 4f 6d bd 9a 96 91 bc 7b 50 04 bd c5 ae 43 3d
       -0.05793669 -0.017772008 -0.032303315 0.047774095
000260 62 89 57 bd 28 20 62 bd e9 da 15 3d de b5 99 3c
       -0.052621253 -0.055206448 0.036585722 0.018763479
000270 5b 6f 8f bc aa 5e 2b bc 1b 76 3d bc 37 4c d0 3c
       -0.017509153 -0.010459581 -0.011563803 0.025426967
000280 31 75 1d bb b6 84 ec bc 54 d4 22 3d da e8 a6 bc
       -0.002402615 -0.028871875 0.039753273 -0.020374704
000290 43 8b ab bc eb 2c 77 3b 18 02 16 bd 34 0a 48 bc
       -0.020940429 0.0037715982 -0.03662309 -0.012209464
0002a0 ad cc fd 3c 38 63 58 bd ee 69 0b bd b4 7f ee 3c
       0.030981386 -0.052828997 -0.03403657 0.029113628
0002b0 1d d6 55 bb af 1f 39 3d b1 79 a4 3c 9c 36 2f 3d
       -0.0032628842 0.04519623 0.020077558 0.04277669
0002c0 6c 62 65 3c 51 9d a4 bc 5b 58 d8 bc cf 92 4e 3d
       0.014000516 -0.020094546 -0.026409319 0.050432976
0002d0 fb 54 08 bd ec da 55 3b 1b df 57 ba 8d 19 21 3a
       -0.03328417 0.0032631708 -0.00082348444 0.000614547
0002e0 33 21 33 3d d4 84 e0 3c b8 e2 39 3d 7c a9 f0 bc
       0.043732833 0.027407087 0.04538223 -0.029377691
0002f0 4d f9 cb 3b 7b a4 7f 3d 30 d6 43 bc 37 b5 1e 3d
       0.0062247873 0.06241272 -0.011952922 0.03874704
000300 d1 0b 3c bd c0 7e 88 bd 3d 8a c7 bc 3e e6 1b 3b
       -0.045909707 -0.06664801 -0.02435791 0.0023788358
000310 1d 30 5a bd ce 98 b8 3c 7d e3 27 3c b3 f7 2e 3d
       -0.05326854 0.0225338 0.0102471085 0.042716693
000320 e8 63 07 3c 18 12 7e 3d 14 84 c0 3c 23 7e 12 bc
       0.008263566 0.062028974 0.02350048 -0.008941206
000330 41 92 0e b8 60 22 ac 3c 3d 96 ec bc b4 71 3d bd
       -3.3991648e-05 0.021012485 -0.028880233 -0.046251014
000340 78 73 62 3c ee 4e 48 3d 8f c1 ba bc 10 bf 19 3c
       0.013821475 0.0489034 -0.022797374 0.009383932
000350 f4 54 d5 bc 39 cc 8d 3d fe fa 27 bd c0 e9 1e 3c
       -0.026041485 0.06923718 -0.04101085 0.009699285
000360 fa 95 de 3c 68 f5 3a 3c de a2 cd 3c d1 06 18 3d
       0.027171124 0.0114110485 0.025102075 0.037115876
000370 df 5b 26 3c 45 f4 16 3d 74 df 44 3d f7 bb ee 3c
       0.01015374 0.036854047 0.048064664 0.029142363
000380 f7 dc df 3c 9a fe 27 3d b0 25 52 bd e4 78 91 3c
       0.027327044 0.04101429 -0.051305473 0.01775784
000390 f5 dc 66 bd 28 b3 bf 3c 49 ff 32 bd 62 b2 00 bd
       -0.056363065 0.023400858 -0.04370049 -0.03142012
0003a0 6c fb 75 3d c6 a6 29 bc 1a d7 49 bd a9 fc de 3a
       0.060054228 -0.010354703 -0.049277402 0.0017012554
0003b0 6c 2d 0f 3a 5a b1 67 bc c0 a6 91 bc 88 3f 83 bc
       0.00054617855 -0.014141405 -0.017779708 -0.016021505
0003c0 5c e8 c1 bc eb e1 5a bd 89 8f 43 3d 1a 57 37 3d
       -0.023670368 -0.05343811 0.047744308 0.0447608
0003d0 6d 8e 9a bc 0a 4c 30 bd 68 be 0c 3d f0 78 1b 3c
       -0.018866742 -0.043041267 0.034361273 0.009489283
0003e0 fa cf 70 3d c2 10 37 3d 69 2d 6b 3d dc d8 16 bd
       0.058792092 0.044693716 0.057416353 -0.036827907
0003f0 5a 0d 66 3d e5 b2 be 3c 57 5d 4f bd 3f 1f cf 3b
       0.056165077 0.023278663 -0.050626125 0.0063208635

fc4.bias f4 [14]
000000 4a 39 6f 3c 85 71 fe ba 0b bf f4 bb c5 2a 1c bd
       0.014601061 -0.0019412494 -0.007469063 -0.038126726
000010 16 51 36 bc 2b d0 87 3c bc 6c 37 3c 13 0d 31 3d
       -0.011127731 0.016578754 0.011195358 0.04322536
000020 cb 16 30 bd 41 aa 3f 3d 1a 8c 4d bd 58 6a 85 3c
       -0.042990487 0.046793226 -0.05018244 0.01628606
000030 57 da 6e 3d ed 0d 90 3b
       0.058313694 0.0043961913
