libfranka_ws/src/Model_based_Reinforcement_Learning_In_Teleoperation/Model_based_Reinforcement_Learning_In_Teleoperation/rl_agent_autoregressive/lstm_training_output/Autoregressive_LSTM_FULL_RANGE_COVER_20251201_175203/autoregressive_estimator.pth (torch, 394068 bytes, 16 tensors)

lstm.weight_ih_l0 f4 [256, 15]
000000 75 77 5e be 36 34 29 3f 6d 2c 35 be cb 08 04 3f
       -0.21725257 0.6609529 -0.17692728 0.51575917
000010 d5 5b 28 be e4 6e f0 be 21 29 fc be 73 fd 78 3e
       -0.16441281 -0.46959603 -0.4925013 0.24315433
000020 fb 3d 1b be 88 ea b4 bc ca d8 87 3d 48 ba 1c 3e
       -0.15160362 -0.02208449 0.06633146 0.15305436
000030 6d 5e d0 3d 25 69 75 be c9 6d ac be e9 80 32 3e
       0.1017426 -0.2396589 -0.3367751 0.17431988
000040 7b d6 4e 3e b2 2f 39 3e e7 12 38 bd db 01 6b be
       0.20199005 0.180846 -0.0449399 -0.22949927
000050 58 a1 6e 3d 38 8a 9c bb 38 12 86 3e 33 c1 bb be
       0.05825934 -0.004777219 0.26185775 -0.36670837
000060 0f 67 44 3e a6 21 7b 3b bb 0b 0b 3f d0 49 98 be
       0.19179939 0.0038319617 0.54314774 -0.29743814
000070 9a ba 1c 3f ad e1 de bd aa 70 1f be c4 6e a3 be
       0.6122223 -0.10882888 -0.15570322 -0.31920445
000080 93 5f 07 bf 16 4c 93 be c5 38 a5 bd c8 7d e6 3e
       -0.5288021 -0.28768986 -0.080674686 0.45017838
000090 92 3a 21 3e f1 9f de bc cd 57 f1 3d 7a bc 46 bc
       0.15744999 -0.027175875 0.11784325 -0.012129897
0000a0 f3 a5 f2 3d 40 e5 28 bc b9 6d 46 3d c7 a1 54 be
       0.118480586 -0.010308564 0.048444483 -0.20764838
0000b0 77 fe d1 3e fa fb 0f bd e1 36 f6 3e d0 a4 69 be
       0.41014454 -0.035152413 0.48088744 -0.22816777
0000c0 9e e2 14 3f 96 0c 05 3e 50 24 0b bf 04 0c 21 bf
       0.5815829 0.12993082 -0.54352283 -0.6290896
0000d0 69 27 29 3e 4b ee ea be 6b 81 89 3e 00 9d 90 be
       0.1651894 -0.45884928 0.2685655 -0.28244781
0000e0 b1 38 c3 3d 08 1a 2d 3d 32 e9 ad be c1 92 4e be
       0.095322974 0.042261153 -0.33966976 -0.2017317
0000f0 1e 54 37 be 0b 2e 43 bf ec 5e 5f bd 7d 6c 4d bf
       -0.17903182 -0.7624213 -0.054533884 -0.80243665
000100 48 e3 15 3e 71 2a 20 3f fe 02 40 3f 84 5b 72 be
       0.14637482 0.6256476 0.75004566 -0.23667723
000110 af 9b 7d 3e b4 52 5b be e7 7a d8 3c df 4a 9e 3c
       0.2476642 -0.21418267 0.026425792 0.01932281
000120 cf 87 a2 3d ec b5 3d 3d 79 98 02 3f 7c 84 0e be
       0.0793606 0.046316072 0.51013905 -0.13917726
000130 6b b7 ad be f9 fd f9 3b c7 58 c3 be 5a 06 42 be
       -0.33929 0.007629153 -0.3815367 -0.18947735
000140 1f 1f 96 3e 5e 92 b2 3e 8b 08 32 be fb bd 6f be
       0.2932062 0.34877294 -0.17386071 -0.23412316
000150 7c 2b 24 be a7 44 5a be 6d 39 e5 3d a9 b6 62 3d
       -0.16032213 -0.21315251 0.11192594 0.05534998
000160 c3 b5 16 bd 1d 48 98 3e c6 ad 91 bc f3 bf 41 be
       -0.036794435 0.29742518 -0.017783057 -0.18920879
000170 62 ca b0 be e2 d1 0e bd 06 4d a0 3e 2a 49 b4 3d
       -0.34529406 -0.03486813 0.31308764 0.088030174
000180 c3 38 17 3e c0 f8 05 3f 88 77 e6 3e f3 59 8d bf
       0.14767747 0.5233269 0.4501307 -1.1043075
000190 22 0b 5c be 38 06 90 3e af 6e 8a 3e f0 40 13 c0
       -0.21488622 0.28129745 0.2703757 -2.3008385
0001a0 23 dc 01 be 79 b0 74 3e be 8d 55 bd ed d2 b7 3d
       -0.12681632 0.23895444 -0.05213713 0.08975778
0001b0 81 6f c8 3d 1d 1c 1f 3f e9 70 92 be a9 38 15 3c
       0.09786893 0.6215227 -0.2860177 0.009107747
0001c0 e0 91 81 3e b2 22 a3 3e 7c e9 c0 3e 70 85 11 be
       0.25306606 0.31862408 0.37678134 -0.14211059
0001d0 3f 54 0a 3e 41 73 35 3e fe 38 2d 3f 02 d7 ab bd
       0.135087 0.17719747 0.6766509 -0.08390619
0001e0 fc fc 58 3d c3 91 a6 3e 08 62 a6 3d f5 c9 a3 3e
       0.05297564 0.32533082 0.08124167 0.31990018
0001f0 ad 26 09 bd 8d 9c 4e bd 8a 3c f4 bc c8 ab ec 3d
       -0.03348415 -0.050442267 -0.029814024 0.11556202
000200 2c a8 89 3e 38 78 b4 bd 01 c0 ad 3e 7d b0 e9 bd
       0.26886117 -0.088119924 0.3393555 -0.114106156
000210 fa 13 50 3e f2 f4 9d be 44 7e 79 be 45 22 fc bc
       0.2032012 -0.3085094 -0.24364573 -0.03077806
000220 f1 70 4b be 44 f5 38 be 1c 87 b1 be 99 68 ea bd
       -0.19867302 -0.18062311 -0.34673393 -0.11445732
000230 09 9b 8d 3e 07 2f 04 3f c4 13 c6 3d 59 30 ed bd
       0.27657345 0.5163426 0.09671739 -0.11581487
000240 ea b1 22 3e d2 2f 27 3e 96 4d 8e 3e fc 61 34 bd
       0.15888181 0.16326836 0.27793568 -0.044038758
000250 88 54 de bb 42 82 46 3e 44 ff dc 3c 96 dd b0 3e
       -0.0067849793 0.19385627 0.026977189 0.34544057
000260 f9 a4 2b 3d d7 6a 6a 3e 9f 6b 6f be be ab 06 bf
       0.041905377 0.22892319 -0.23380898 -0.5260581
000270 1e 08 fe be 8c 83 0f be 44 45 88 be e0 06 24 3f
       -0.49615568 -0.14015025 -0.26615345 0.6407299
000280 62 82 cd 3c 2a 08 ab be 60 d7 94 be 19 4b ea bd
       0.025086585 -0.33404666 -0.29070568 -0.11440105
000290 31 7e 94 be 95 2e 52 bd 3b 36 15 3e 98 aa 1e 3f
       -0.29002526 -0.051313955 0.14571469 0.61979055
0002a0 bf 8f 83 3e 50 a1 00 bd 57 8a 85 be a0 a8 71 bd
       0.25695607 -0.03140384 -0.26082107 -0.058998704
0002b0 42 72 6e bf 56 84 14 3f 98 7f b5 be 54 41 c1 3e
       -0.93143094 0.5801443 -0.3544891 0.37745154
0002c0 5b 04 64 be 94 c6 e7 3d 63 88 35 be fc 01 4f be
       -0.22267286 0.11317173 -0.17727809 -0.202156
0002d0 61 bd bc 3e 9d a9 d4 3b ee 8f c0 bc ee 2a 64 3d
       0.36863235 0.006489946 -0.023506131 0.055705003
0002e0 5c 6e 78 3e 92 33 81 be 41 b6 87 be 41 3a a0 be
       0.24260849 -0.25234658 -0.26506236 -0.31294444
0002f0 af cd 95 bd 72 f1 d8 bd 3f bf b1 be 9f ed 63 bf
       -0.07314622 -0.10592927 -0.34716222 -0.89034456
000300 8d a7 92 bd fa a2 d9 be 04 d0 06 be 48 ea bf 3d
       -0.07160864 -0.42507154 -0.13165289 0.093708575
000310 6d 9b 97 be c6 47 59 3e 2b 1b b9 be 9c 4d d3 bb
       -0.29610768 0.21218786 -0.3615354 -0.0064484607
000320 af 85 cc 3e 53 af cb 3d ab f2 1b bd c7 f7 30 3c
       0.39945742 0.0994555 -0.038073223 0.010801262
000330 69 42 57 be e8 16 a5 3d 87 67 51 bd a4 d5 99 3d
       -0.21021427 0.0806101 -0.051124122 0.07511452
000340 6c 8f 10 3f 36 5e 7b 3e b2 33 05 3d 60 36 14 bf
       0.56468844 0.24547657 0.032520004 -0.5789547
000350 5a 47 29 bd dc d0 bf be 6e 29 b1 3c e2 8c 03 3f
       -0.04132781 -0.37464035 0.0216262 0.51386845
000360 b5 d0 e7 3e 25 f7 e8 be 23 51 1b 3e d6 4c 8f 3e
       0.45276418 -0.45501056 0.1516767 0.2798831
000370 53 09 a3 3e 49 97 59 3e 35 dc 99 3c b0 2a c1 bd
       0.3184305 0.21249117 0.01878176 -0.0943197
000380 20 36 d0 3e ac 06 96 bf fa 91 cd 3d 03 27 57 bf
       0.40666294 -1.1720786 0.100376084 -0.840439
000390 ac 24 3c bd a4 b1 da 3d 01 de 9c 3e 88 4e 77 3e
       -0.04593341 0.106784135 0.30638126 0.24151051
0003a0 9f 25 a9 3e 7c 0c f1 bd c8 d3 5d 3f 30 f6 b0 3e
       0.33036515 -0.11769959 0.8665128 0.34562826
0003b0 af 61 11 3f d9 c4 97 be 9b 50 fb 3d 04 79 67 bd
       0.5678968 -0.2964237 0.12271234 -0.056511894
0003c0 ba d4 58 bd d8 5b 0f bf eb 80 fc 3a 63 2b 3c bf
       -0.052937247 -0.5599952 0.0019264495 -0.735037
0003d0 f6 3a a0 bd 81 29 61 3f 3e a5 20 3f 0c f8 e1 3c
       -0.07823746 0.87953955 0.6275214 0.027584098
0003e0 dd 1e 16 3f c1 88 ad 3d 61 4d 17 bc ad bd fe 3d
       0.58640844 0.08473349 -0.009234757 0.124385215
0003f0 30 0e e1 3d ca a3 95 bb bd b7 3e 3f c0 79 1a 3c
       0.10989034 -0.0045666443 0.7449911 0.0094284415

lstm.weight_hh_l0 f4 [256, 64]
000000 37 cf 19 bf e8 e6 2c 3e 58 bd 85 3d ba 77 aa 3d
       -0.6008181 0.16884959 0.06530255 0.08323617
000010 1b dd ab bb a6 fb 9b bd 47 cf e2 3c 62 f5 b3 be
       -0.0052448637 -0.076163575 0.027686728 -0.3514815
000020 ac c3 99 3d fd 1f 93 3e 83 6f 4c 3e cb c9 89 3e
       0.075080246 0.28735343 0.19964413 0.26911768
000030 21 f7 33 bd 30 89 5b 3f 8a 03 5b be 09 10 38 be
       -0.043936852 0.85756207 -0.21388069 -0.17974867
000040 53 32 d7 bd 55 64 b5 be 6c 59 fe 3d 3b c7 14 3d
       -0.105076455 -0.3542811 0.124193996 0.036322813
000050 43 b0 20 be d0 d7 b0 3e 78 2b 2a bf 4e a7 83 3e
       -0.15692239 0.34539652 -0.6647258 0.2571358
000060 d2 9a 8b 3d cf 4c 1d 3e 59 03 4d be 7d 1e 08 be
       0.06816639 0.15361331 -0.20020808 -0.1329288
000070 2a 6f d0 3d 85 dd 8f be 0b 53 f1 bd 73 51 83 3e
       0.10177453 -0.28098693 -0.11783417 0.25648078
000080 34 2d ef 3e 4f 11 33 bf 5b d6 32 bf b1 17 4f 3e
       0.46714175 -0.69948286 -0.6985833 0.20223881
000090 74 5f 7f bd de d1 c6 be 99 d5 12 3f 8e 9a ac be
       -0.06234689 -0.3883199 0.57357174 -0.33711666
0000a0 78 90 eb bd 66 48 a8 bc b9 22 d3 be 37 b0 54 be
       -0.115021646 -0.020542335 -0.4123743 -0.20770346
0000b0 bc a8 06 bd 72 fa 94 bc 7e 17 0a be 05 5e 63 3d
       -0.03287576 -0.018185828 -0.13485524 0.055509586
0000c0 1d f7 d2 be cb 99 b1 3d 8b fc f5 3d ca ba b8 3e
       -0.41204157 0.08671912 0.120110594 0.3608001
0000d0 94 c1 5a be f6 ac f2 3e c4 b6 8b 3e 7f cd 66 3f
       -0.21362907 0.47397584 0.27287877 0.9015731
0000e0 d8 e3 c7 be dd e6 25 3f b0 ce 28 3e 04 cd 04 bf
       -0.39041018 0.64805394 0.16485095 -0.5187533
0000f0 67 7d 82 be e9 80 be be f0 4e 4b 3d 4f 9c 5d be
       -0.254863 -0.37207726 0.049635828 -0.21641658
000100 23 bd dd 3e 1a a3 6a 3e 53 3b 4e be cb 0f 25 3e
       0.43308362 0.22913781 -0.20139818 0.16119306
000110 6e ca a0 3e 97 10 23 be 54 cc f4 bc d3 39 db be
       0.31404442 -0.15924297 -0.029882587 -0.42817554
000120 8d bd f2 3e fd 1e af 3e c6 81 a8 be 41 dd 8d be
       0.4741024 0.3420333 -0.3291151 -0.27707866
000130 4c 84 18 be 6f a6 a3 3d bb 31 d9 be 9a d0 1d bf
       -0.14894217 0.07990729 -0.42420754 -0.61646426
000140 90 a4 ff 3d ea b2 86 3e 65 48 b8 bd c4 74 48 3e
       0.1248256 0.26308376 -0.08998183 0.19575793
000150 f6 86 ca 3e bd 65 fa 3e 0a 9e 17 bf 71 11 dc 3d
       0.39556092 0.48905745 -0.59225523 0.10745514
000160 32 be c9 3d 36 50 a9 3d 79 c2 ed 3e 64 a3 02 bf
       0.0985073 0.08267252 0.46437433 -0.51030564
000170 36 8f 1c bf cb 57 1b 3e 57 cd cf 3e c4 d0 32 3e
       -0.6115602 0.15170209 0.4058635 0.1746245
000180 2b 55 76 3d 76 08 e3 3e 3d a1 51 bf 39 06 70 3e
       0.060139816 0.44342393 -0.81886655 0.23439874
000190 38 88 d8 be ab 05 e6 3d d9 a7 19 be 82 7a 62 3d
       -0.42291427 0.1123155 -0.15005435 0.055292614
0001a0 4d 76 b4 3d 1f c4 59 be b3 5e 71 3e f1 22 8e 3e
       0.088116266 -0.2126622 0.23571281 0.27761033
0001b0 d5 f2 2e bf c3 d6 aa be 6c 57 c8 bd 18 84 1c 3f
       -0.6833928 -0.33366975 -0.097822994 0.6113906
0001c0 6f 9e 86 be 80 a5 2a 3d 95 0c 69 3e fd b0 43 3b
       -0.2629275 0.04166174 0.22758706 0.0029860132
0001d0 1e 94 6b bf 25 36 ef 3e bd 88 18 3f d2 8e 96 bb
       -0.92022884 0.46720996 0.59583646 -0.004594662
0001e0 68 9c 0e 3e 4f 5b 53 3f 42 60 6d 3f 0b e7 c3 3c
       0.13926852 0.825612 0.92725 0.02391388
0001f0 85 74 f1 be c7 41 a3 be 7b ad 71 bf 16 4e 8e bd
       -0.4715921 -0.31886122 -0.94405335 -0.069484875
000200 e0 a2 16 3e 05 80 b7 3d 64 5d 0e 3e 57 0e 00 be
       0.1471057 0.08959965 0.13902813 -0.1250547
000210 3a 50 79 be df bd 10 3e 8f b1 5a be 8a 9c 0f bf
       -0.2434701 0.1413493 -0.21356796 -0.56098235
000220 b3 a1 c7 3e 40 59 1c 3b a9 3c 44 bd ef b9 9d be
       0.38990554 0.0023856908 -0.047909413 -0.3080592
000230 09 f4 e6 3e 82 51 49 3e 96 da 67 3e e3 ba af 3e
       0.4510806 0.19659999 0.22641978 0.3432227
000240 88 6e 2a 3e ae c8 a9 bd a4 8f d0 be 81 96 80 3d
       0.16643727 -0.0829023 -0.4073459 0.06278706
000250 2f e2 5c bc b0 ff b0 bd 69 dc 20 3f 8f cc db bd
       -0.013481661 -0.086425185 0.6283632 -0.10732376
000260 0f 48 13 bd 5c 10 43 be cc b9 38 3e ff d1 02 3e
       -0.035957392 -0.1904921 0.18039626 0.1277542
000270 71 85 9f be 60 3c 13 3c 55 72 e6 bd 02 e1 11 be
       -0.31156495 0.0089865625 -0.11252276 -0.1424599
000280 dc 2a 92 3e 60 d7 22 3e 58 07 63 3e 39 58 f5 bb
       0.28548324 0.15902472 0.2217077 -0.0074873236
000290 74 50 37 be 14 40 9b 3d 74 2e aa bc 5c 87 f4 3e
       -0.17901784 0.07580581 -0.020774104 0.4775952
0002a0 a1 7f 8b be 70 34 1e 3e e6 de f5 bd 19 04 2e 3c
       -0.2724581 0.15449691 -0.12005405 0.010621094
0002b0 c1 60 80 3e b8 12 2b 3e a8 74 15 bf b9 74 03 be
       0.25073817 0.1670636 -0.5838113 -0.12837495
0002c0 8e 63 80 3d 5f c2 af be 38 74 ac bd 51 be 30 3e
       0.062689885 -0.3432798 -0.084206045 0.172601
0002d0 82 2d 77 bd e3 90 5c 3d 16 1e 42 bd fd a9 a1 be
       -0.060346134 0.053849112 -0.047391973 -0.31575003
0002e0 24 47 32 3e 1d f3 67 be 7a 7f 1c 3e 7d 09 0d 3e
       0.1740995 -0.22651334 0.15283003 0.1377315
0002f0 54 b0 c4 3e 70 1a bc bd 62 70 1e 3d d9 f0 3b 3e
       0.38415778 -0.0918473 0.038681395 0.18353595
000300 d6 30 62 be 86 9f 21 bf 14 95 af be 5d a5 60 bd
       -0.22088942 -0.6313404 -0.34293425 -0.054845203
000310 54 de 56 3e a0 65 db bd 5a f7 96 3d c3 f6 01 be
       0.20983249 -0.10712743 0.07371397 -0.12691788
000320 87 56 27 be 8a c1 1e bf 2c 46 9a bc 50 36 b2 3e
       -0.16341601 -0.6201407 -0.018832289 0.34807062
000330 1e 29 cc 3e 5b 4f 97 be 64 49 4d bd f8 eb 03 bc
       0.3987512 -0.2955273 -0.05011882 -0.008051865
000340 9a 41 e2 bb ef 26 c5 be d9 1a c4 be 46 1d ae be
       -0.006904793 -0.38506266 -0.38301733 -0.3400671
000350 71 86 4c be cb 9f 34 be f8 b3 65 be f8 76 8b 3e
       -0.1997316 -0.17639081 -0.22431934 0.27239203
000360 72 40 7a 3d 1c 61 23 bd 3f e2 db be ad 33 4e be
       0.061096616 -0.039887533 -0.4294605 -0.201369
000370 bf 07 11 be fd 73 57 3e c2 f4 a9 bd c8 d4 9a 3e
       -0.14163111 0.2104034 -0.08298637 0.30240464
000380 84 38 71 be 0d 2a 35 bd 6a e0 1a be 56 07 7b 3e
       -0.23556715 -0.044229556 -0.1512467 0.24514517
000390 2d ac 1a bd 22 b6 40 3e 73 b5 9c 3e ce a1 f0 bd
       -0.037761856 0.18819478 0.30607185 -0.11749612
0003a0 60 51 6d 3d 03 4b 88 be 5c 27 aa be 3b 7f e9 3e
       0.057938933 -0.2661973 -0.33233154 0.45604882
0003b0 d7 bd 8e bd a1 fa 88 3c ee ff ae be cc fd ba bc
       -0.06969803 0.016721072 -0.34179634 -0.022826098
0003c0 a3 1b f2 3e 73 af 56 be a7 bc e2 3e 4d 56 b0 be
       0.4728671 -0.20965366 0.44284555 -0.34440842
0003d0 a8 13 e5 be d5 dc 87 bd 36 77 a3 3c 9d d9 43 be
       -0.4474156 -0.06633917 0.019954305 -0.19125982
0003e0 86 51 3c be 08 65 12 3e c9 6c 34 3e 9e 40 84 3e
       -0.18390474 0.14296353 0.17619623 0.2583055
0003f0 c8 95 58 be 1d f3 88 3d c2 61 9d bd 14 2f 50 3e
       -0.21150887 0.06686995 -0.076846614 0.20330459

lstm.bias_ih_l0 f4 [256]
000000 e9 25 fa be dc 25 c0 bd 1c f2 ab 3e b6 d0 23 bf
       -0.48857048 -0.09382221 0.33583152 -0.6399034
000010 7f f0 3d 3f 4d 08 7b 3e 00 9d e6 3d 31 ad a5 bd
       0.7419509 0.24514885 0.11260414 -0.08089674
000020 81 d0 8a be 84 47 9a 3e 0f 74 cb be a7 15 6a be
       -0.271122 0.30132687 -0.39736983 -0.22859822
000030 23 b2 c5 bd d4 8a c9 3e d5 42 c6 3e 42 44 06 3e
       -0.096531175 0.3936373 0.38722864 0.13111976
000040 74 11 43 3f 89 b2 92 3e cd 01 fe ba 38 b6 d7 3c
       0.76198506 0.28651837 -0.0019379199 0.026332006
000050 0a 79 d7 be 9f 82 ba bc 86 7b ed 3e e7 5c 1c 3f
       -0.42084533 -0.022767363 0.46383303 0.6107926
000060 40 2c 00 bf 95 62 8f bd 3d d8 a1 3c d0 f8 16 bf
       -0.5006752 -0.07001225 0.01975643 -0.5897341
000070 c0 6d 82 bc f5 81 2e be 21 83 12 bf 9d 2c b1 be
       -0.015921474 -0.17041762 -0.57231337 -0.3460435
000080 3c a8 01 bd 0f 11 76 be 95 df 83 be 6d 95 c7 be
       -0.03165458 -0.24029945 -0.25756517 -0.3898119
000090 be 01 1a bd a5 b3 e2 3e 6b 0f 6f bd fe 85 01 3d
       -0.037599318 0.44277683 -0.058364313 0.031621926
0000a0 f7 43 d1 3e 8b 60 71 bd c3 aa 16 be 69 71 e0 3e
       0.40872166 -0.05892996 -0.14713578 0.43836525
0000b0 51 bd 2f bf f8 ac 09 3f 7d 19 40 be 39 14 25 bf
       -0.6864825 0.53779554 -0.18759723 -0.6448398
0000c0 a1 11 0d be b0 1f fc be 5d a1 14 bf f2 82 5a 3e
       -0.13776256 -0.49242926 -0.5805872 0.21339014
0000d0 cd d4 46 be 2e a9 e8 3e 6b 14 32 3f 50 60 48 3e
       -0.19417115 0.45441574 0.69562405 0.1956799
0000e0 1f 09 96 3e 52 d0 cc 3b ed 99 83 bd 86 5d aa bc
       0.29303834 0.0062504197 -0.064258434 -0.020796549
0000f0 6d 6e 65 3e 5e c5 e1 bd e2 35 c1 bd 27 db d4 3e
       0.22405405 -0.11023973 -0.094341055 0.4157345
000100 2c c0 30 3f 58 d4 6b 3d 92 31 5c bd ba 87 4c 3f
       0.6904323 0.057575554 -0.05375821 0.798946
000110 2d 35 67 3a 36 10 3b bd 31 e6 2f 3e d1 3d 88 3d
       0.00088198745 -0.045669757 0.17177655 0.066524155
000120 84 a8 24 3e ec 55 5d bd c3 36 0a 3f e8 8f 0b 3d
       0.16079909 -0.05403702 0.5398981 0.034072787
000130 24 85 1d 3d 98 ec 50 bd bc 81 ec 3d cc 5d f9 bb
       0.03845705 -0.051006883 0.11548182 -0.0076100584
000140 b2 ea 62 3d f0 ce 93 3c 41 08 97 be 08 7c 9a 3c
       0.055399604 0.018043011 -0.29498485 0.01885797
000150 db e3 67 3e e9 b4 5e be 6a f6 a7 3c c9 e1 18 3b
       0.22645514 -0.21748699 0.020503242 0.0023327938
000160 45 2c 63 3f 29 f4 fa 3d de 9c 9d bd 48 34 54 3f
       0.88739425 0.12253601 -0.07695936 0.82892275
000170 89 59 23 bd 47 f5 c7 3d 79 12 35 3f de d8 52 3e
       -0.03988031 0.0976358 0.7073131 0.20590541
000180 dc 78 d0 bd dd d5 05 bd f1 1f 88 bc e4 6d 9f 3e
       -0.10179302 -0.03267466 -0.016616793 0.31138527
000190 aa cb 82 3e 55 27 04 be c6 c1 2b 3d f0 67 33 3d
       0.25546008 -0.12905629 0.041932844 0.043800294
0001a0 fe d5 ab bd 17 5b ce bd d6 6b 5c 3d 2f d7 15 3d
       -0.08390425 -0.10075968 0.053813778 0.03658217
0001b0 20 5b 50 3f 35 81 4b 3e 82 c2 9c 3d fc 5b 64 3f
       0.81389046 0.19873507 0.07654287 0.89202857
0001c0 08 dc 6d bb 55 c0 40 3f 52 78 45 3f 97 6c 2e bc
       -0.003629448 0.75293475 0.7713672 -0.010646007
0001d0 6b 51 07 3e 1d 24 a0 bd 23 a6 06 3c 90 9e b2 bd
       0.13214652 -0.07819388 0.008218321 -0.0872165
0001e0 5d 47 97 b9 da 5d a9 bc e6 95 39 be 5d 26 c3 bd
       -0.00028854134 -0.020674635 -0.18123588 -0.095288016
0001f0 87 d5 5f bd 07 e8 95 3c ce dd 74 3e 57 8c 1b bc
       -0.054646995 0.018299116 0.23912737 -0.009493909
000200 44 d8 25 be b3 96 cf 3d 7e b5 b1 bd 77 6d af bd
       -0.1619578 0.101361655 -0.08677195 -0.08565801
000210 5b b4 7c be 96 6a ee 3a bf 81 5f bb 28 95 63 bd
       -0.24678175 0.0018189724 -0.0034104434 -0.05556217
000220 c4 aa 9b 3b 2b 2a 88 be c3 c0 b7 39 f2 17 b7 3d
       0.0047505815 -0.26594672 0.000350481 0.08940114
000230 1b f6 b1 bd aa 48 27 be 40 51 6b bd e3 10 5e bb
       -0.08689519 -0.16336313 -0.057450533 -0.0033884577
000240 70 ca 84 be 8f 57 72 be 03 d6 12 3e c5 b6 f3 bd
       -0.25935698 -0.23666213 0.14339451 -0.11900095
000250 5e 2d c5 3d 97 37 66 3d 40 4b 46 3d 33 67 5c bd
       0.09627794 0.05620536 0.048411608 -0.053809356
000260 c3 35 de bc c7 10 08 3c 2f d0 30 be 7d 02 b9 bd
       -0.027125245 0.008304781 -0.17266916 -0.09033678
000270 19 e0 86 3e 55 27 e4 3d 3f 84 6f bc 8e 74 ce bd
       0.26342848 0.111403145 -0.014618932 -0.10080825
000280 2c c1 1d 3e e0 70 d3 bc 6a b6 0f 3e b7 b1 0f 3c
       0.1540572 -0.025810659 0.14034429 0.008770398
000290 90 2b 66 3d 54 36 ba bd 8f c7 61 3e 9a c7 e5 bd
       0.05619389 -0.090923935 0.22048782 -0.112197116
0002a0 6e e5 e2 bd 02 ab 8b bd 96 40 97 3d 8e 43 e5 3d
       -0.110789165 -0.068197265 0.07385366 0.11194526
0002b0 2c b4 d8 bd d5 64 bf bd 7b 4c 31 3d 38 10 ce bd
       -0.1058124 -0.09345404 0.043285828 -0.10061687
0002c0 0b 70 1e bd a8 42 83 bd 86 88 1f 3c e4 6c 86 be
       -0.03868107 -0.06409198 0.00973714 -0.26254952
0002d0 ee e5 87 bd 89 7f a7 be 34 94 55 3e 70 66 0c 3e
       -0.066356525 -0.3271449 0.20857316 0.13710952
0002e0 c3 b6 88 be eb a4 82 bd 93 12 47 3e 84 cd c7 bd
       -0.26701936 -0.06379112 0.19440679 -0.09755996
0002f0 42 f3 00 3d 6e 90 a9 bd df b2 38 bd f1 71 06 be
       0.03148199 -0.08279501 -0.04509246 -0.13129403
000300 b0 8b 92 be 38 e1 32 bd e8 61 cd 3e c8 84 03 be
       -0.28622198 -0.043671817 0.4011376 -0.12843621
000310 92 ad 14 3f 78 ec 99 3e 18 0a bc 3d 57 a5 4e be
       0.5807735 0.30063224 0.09181613 -0.2018026
000320 b8 4f 15 be bd 0d c1 3e 2e 6d d6 bd df 45 99 be
       -0.14581192 0.37705794 -0.10470043 -0.2993612
000330 ca 19 a1 bd a9 a3 69 3e 01 7d f8 3e 86 1e fd 3d
       -0.07866247 0.22816338 0.4853287 0.123593375
000340 c3 48 13 3f a9 2a d6 3d 05 40 24 3e 72 15 9f bd
       0.575329 0.104573555 0.16040047 -0.07767762
000350 26 59 b0 be e7 4c c4 bd 92 81 e0 3e 0d 0e 17 3f
       -0.34443015 -0.095849805 0.43848854 0.59005815
000360 6c 0e f1 bd 35 58 99 bd 7d b6 fd bc f1 98 12 be
       -0.11770329 -0.07487527 -0.030970806 -0.14316155
000370 bd a1 88 3d ac 9e af be fd 04 5d be fd 40 cd be
       0.06671474 -0.34300745 -0.21583934 -0.40088645
000380 bc 72 30 be b8 3e 86 be bd 29 04 be 67 7e 29 be
       -0.17231268 -0.26219726 -0.12906547 -0.16552125
000390 95 a0 fc bd 92 c9 e9 3e 7d 64 4e be c4 12 35 3e
       -0.12335316 0.45661598 -0.2015552 0.1768294
0003a0 69 6a 8d 3e 61 c7 85 3d c4 2a 01 be 98 b8 df 3e
       0.27620247 0.06532169 -0.1261397 0.4369552
0003b0 03 a5 eb bd 6e b5 c1 3e fa d9 89 bd b9 7e ab 3d
       -0.11506083 0.37833732 -0.06731029 0.0837378
0003c0 dd ca df 3d a1 dd ca be 7e 16 93 bd a7 f2 bf 3e
       0.10927365 -0.39622214 -0.071820244 0.37489817
0003d0 05 a1 b4 bd b9 21 94 3e a0 58 49 3f 25 8e 95 3e
       -0.088197745 0.28931978 0.78650856 0.2921001
0003e0 84 c0 89 3e cc bd 0c be 68 c2 12 be db f5 8d bd
       0.2690469 -0.13744277 -0.14331973 -0.06931659
0003f0 91 a9 77 3e 5a c9 80 bd 9a 73 1b be 95 fe ab 3e
       0.24185778 -0.06288405 -0.15180817 0.33592668

lstm.bias_hh_l0 f4 [256]
000000 29 cd cf be b5 15 11 3d 39 58 ce 3e f7 56 f6 be
       -0.40586212 0.035421092 0.40301684 -0.48113224
000010 48 ad 3f 3f 20 72 97 3e f8 1c b0 3c e5 13 10 bd
       0.7487378 0.29579258 0.021498188 -0.035175223
000020 a6 db 87 be 4d a1 84 3e 45 9c a5 be 25 34 a8 be
       -0.26534766 0.25904313 -0.32345787 -0.32852283
000030 f1 67 03 bd a3 66 ea 3e 19 ec 07 3f 5b 08 bf 3c
       -0.032081548 0.4578143 0.5309463 0.023319414
000040 65 6d 4e 3f 3b 18 af 3e 0c d1 d7 3c a0 e3 1b bd
       0.8063567 0.34198174 0.026344799 -0.038058877
000050 b2 89 9d be 34 10 e4 3b 32 35 15 3f 9e 3b fd 3e
       -0.30769116 0.0069599394 0.58284295 0.49459547
000060 c5 4e 27 bf 0a 48 19 3c 54 d0 22 be 5b 11 15 bf
       -0.6535457 0.009355554 -0.15899783 -0.5822961
000070 41 06 10 bd 47 45 87 be 71 65 eb be b9 dc 92 be
       -0.035162214 -0.26420042 -0.4597583 -0.28684023
000080 31 a1 2f bd 9c 73 bc bd d3 62 68 be 38 db d1 be
       -0.042878333 -0.09201738 -0.22693948 -0.40987563
000090 25 61 80 bd 65 ff 8f 3e 31 cc e1 bd 03 90 af 3d
       -0.06268529 0.28124538 -0.110252745 0.0857239
0000a0 06 a5 b7 3e 33 fe 29 3d 6b 60 82 be 17 5c 1a 3f
       0.3586809 0.04150219 -0.25464186 0.6029677
0000b0 24 a4 0f bf ae b9 c5 3e fc aa 8c be 27 7a 18 bf
       -0.56109834 0.38618225 -0.274742 -0.5956139
0000c0 a9 70 1c be 61 d8 f9 be c9 fd 1b bf 45 58 c3 3e
       -0.15277351 -0.48797897 -0.6093412 0.38153282
0000d0 59 75 81 be 3a dc df 3e 80 a0 38 3f d9 db 98 3e
       -0.25284842 0.43722707 0.72119904 0.2985523
0000e0 33 12 42 3e e7 63 3f bd f4 3e 3d be 0f 8e 90 bd
       0.18952255 -0.046726134 -0.18481046 -0.070583455
0000f0 c0 45 99 3e 1c c7 8c 3b 68 d9 a4 bd 8a 26 c5 3e
       0.29936028 0.0042961966 -0.080492795 0.38505965
000100 bb 26 57 3f 70 12 e1 3d 0f ff 08 3e 86 12 60 3f
       0.84043473 0.10989845 0.13378547 0.87528265
000110 92 b9 8d 3c d6 31 06 be b7 35 25 3c cd 80 d2 bc
       0.0173004 -0.13104948 0.010083607 -0.025696183
000120 46 19 10 3e 6e e2 fc bd 39 aa 9b 3e 60 48 fb 3c
       0.14072141 -0.123478755 0.30403307 0.03067416
000130 af 65 a0 3c ae 56 4b 3d e7 c1 33 3e 84 0e b3 3d
       0.019579737 0.04964321 0.17554437 0.08743003
000140 30 7e d6 3d 89 f4 43 be 57 03 95 bd 9a e9 86 bd
       0.10473287 -0.19136252 -0.07276028 -0.06587525
000150 41 0e 20 3e 24 82 24 be 2b 76 44 3c ca 4d b6 3d
       0.15630437 -0.1606527 0.011991064 0.08901556
000160 e0 28 34 3f f0 55 36 3e 40 53 61 be b2 11 6a 3f
       0.7037487 0.1780622 -0.22004414 0.9143325
000170 49 e5 ee bd 07 5c ac 3d 4c f6 1d 3f f8 87 49 3e
       -0.116648264 0.0841599 0.61703944 0.19680774
000180 1b c3 2d be f6 5e e2 bb d4 0a 06 bd d3 b2 ec 3e
       -0.16968958 -0.006908293 -0.03272517 0.46230182
000190 6a 3f 90 3d de e2 ca 3d 06 a8 43 3e ac fd 1e bd
       0.07043345 0.09906553 0.19107065 -0.03881614
0001a0 3b e3 5c 3d eb 88 01 be 01 23 e4 3d ba 6c b9 3d
       0.05392764 -0.12649886 0.11139489 0.09053941
0001b0 8a 66 63 3f 75 d7 5c 3e 24 94 4e 3e 11 69 73 3f
       0.8882834 0.21566565 0.20173699 0.95082194
0001c0 16 84 3b 3e 6d 28 5a 3f dd 6e 26 3f 5f cf 50 3d
       0.18312106 0.85217935 0.65012914 0.050979014
0001d0 cf ac 9b 3d 18 6d 1d 3b f2 84 3a 3d b3 99 52 be
       0.0760132 0.0024021324 0.045536943 -0.20566444
0001e0 8c 41 29 bd f2 7b d1 bc 8a 1b 04 be c9 2e c2 3c
       -0.041322276 -0.025571797 -0.1290113 0.02370395
0001f0 0f 4e b0 bd cf e6 7e 3d fa 1e b5 3d 91 0e 3e bd
       -0.086086385 0.062231835 0.08843799 -0.04640061
000200 aa 89 b9 3b 88 3b 15 3e a4 90 66 bd 67 07 a0 3d
       0.005662163 0.1457349 -0.056290284 0.07813912
000210 91 2b 47 be 44 79 76 bd f1 81 8f 3d bb b5 7b bd
       -0.19450213 -0.06017424 0.07007206 -0.06145261
000220 6d 66 41 3c 66 1d 87 be bd b8 a2 3d 1f 8b 27 bd
       0.011804205 -0.26389617 0.07945392 -0.04090416
000230 5b 11 99 bd 03 6c cb bd 40 9e d9 3c fb 2b e2 bc
       -0.074740134 -0.09932711 0.026564717 -0.027608862
000240 09 6d 7f be ea 4a 91 be 81 fc 12 bc 08 0b 44 3d
       -0.24943937 -0.28377467 -0.008971334 0.047862083
000250 5d b5 94 bd 32 3b 96 3c 95 47 65 3d 3f c1 02 3c
       -0.07261155 0.018338773 0.05597647 0.007980644
000260 88 4b f6 3d 90 95 ae bc 47 a3 5a be 39 59 fc 3c
       0.12026125 -0.021311551 -0.21351348 0.030804263
000270 88 ab ad 3e d4 80 aa bc 96 4c c8 bd f0 55 94 3b
       0.3391993 -0.020813383 -0.097802326 0.004526846
000280 96 1d 0d 3e 7d 73 95 bd 71 1f f9 3d ef 18 b9 bd
       0.13780817 -0.07297418 0.121642 -0.09037959
000290 ea 77 af bc 45 60 11 be 07 fd 32 3e 61 c0 23 be
       -0.021419484 -0.1419688 0.17479335 -0.15991355
0002a0 aa ec af 3d b2 bd c5 3d 5a 20 11 3c a1 20 06 3d
       0.08590062 0.09655322 0.008857811 0.03274596
0002b0 03 ca 88 3d e5 8c b1 bd 1b 9a 9e bc 7f f1 60 bd
       0.06679156 -0.086694516 -0.019360593 -0.05491781
0002c0 15 89 fe bc a1 f8 12 3e 7f 22 52 bd 91 c8 2a be
       -0.031071225 0.14352657 -0.05130243 -0.16678073
0002d0 9c fe c8 3d a0 b5 49 be d8 5a df 3d 1a 01 9c 3e
       0.09814188 -0.1969819 0.10905999 0.3046959
0002e0 0e a6 6c be fd 28 1e be 7e 92 16 3e 8c d4 40 be
       -0.2311022 -0.15445323 0.1470432 -0.1883108
0002f0 a6 ea 8c bd 04 ac c6 3d e9 ad 78 3d 1e b1 d5 3a
       -0.06880693 0.09700778 0.06071273 0.0016303395
000300 a9 61 a0 be a2 13 ac bd 59 d1 6a 3e 64 39 07 be
       -0.3132451 -0.08402182 0.22931422 -0.13205487
000310 34 d0 19 3f 2d a9 13 3e 44 26 20 bd 6b 29 46 bd
       0.6008332 0.14420004 -0.039098993 -0.048379343
000320 9c 69 a0 be 20 ff b2 3e bf c8 bd 3b 2e 9e 03 be
       -0.31330574 0.3496027 0.005791753 -0.1285331
000330 da 6a d0 bd 46 2d ab 3e 03 8b 0b 3f d3 5d a3 3d
       -0.1017663 0.33432978 0.5450899 0.0797688
000340 83 17 2c 3f ca 07 44 3e 12 fd a4 3d 5f f2 30 be
       0.67223376 0.19143596 0.08056082 -0.17279957
000350 ba 2d 18 be 49 1b 82 ba e4 fd 09 3f 64 55 16 3f
       -0.14861193 -0.0009926345 0.5390303 0.58724046
000360 74 e7 78 bd 32 6a dc bd fa 64 1d be 6b 6f 8a be
       -0.060767606 -0.10762443 -0.15370551 -0.2703813
000370 32 7c 3d bd 7e 64 06 be 40 38 f0 bd d4 48 5b be
       -0.04626102 -0.13124272 -0.11729479 -0.214145
000380 5c dc 73 bd 29 45 9e bd 05 4b 1c be cf b8 b0 be
       -0.059536323 -0.07728035 -0.15262993 -0.34515998
000390 ba b3 01 be ef 76 c5 3e ad 1c 20 bc 2e 0d a1 bc
       -0.12666216 0.38567302 -0.009772462 -0.019659605
0003a0 6b 2c f0 3e e1 3d 68 3d 4f 17 97 be 71 25 cf 3e
       0.46908888 0.056699637 -0.2950997 0.40458253
0003b0 f1 49 a2 3d f7 88 aa 3e 2f a0 72 be 4f 1d df 3d
       0.079242595 0.3330762 -0.23693918 0.10894262
0003c0 9b 83 c4 bd ed a4 93 be 7b b4 fa bd a1 6c af 3e
       -0.09595414 -0.28836766 -0.12241455 0.34262565
0003d0 7a 09 69 be d2 d8 db 3e dc 97 0e 3f 34 12 b8 3e
       -0.22757521 0.42938858 0.5570047 0.35951388
0003e0 2b 76 5b 3e df bc 43 be 94 25 94 be cd 78 09 3e
       0.21431796 -0.19115017 -0.2893492 0.13424988
0003f0 4c 86 f2 3d f4 92 32 be a4 d0 ee bd e0 e4 b7 3e
       0.11842021 -0.1743887 -0.11660889 0.35916805

lstm.weight_ih_l1 f4 [256, 64]
000000 3e 6c fb bd c3 ad d8 bd 90 e8 c8 3d e2 4e 8e be
       -0.12276505 -0.105800174 0.09809983 -0.27794558
000010 ff d0 89 be 70 47 35 3e b8 44 78 3e 71 2c 75 3d
       -0.26917264 0.17703032 0.24244964 0.059856836
000020 eb 20 8b be 0c 51 8e 3d a1 86 27 be 4f 79 bb 3e
       -0.27173552 0.06949052 -0.1635995 0.3661599
000030 f4 cd 2a be c8 03 85 3e a0 e1 82 be 22 ac d7 bc
       -0.16680127 0.25979447 -0.25562763 -0.026327197
000040 f8 5a b4 3d d0 48 54 3e d0 33 81 bc ba fa b1 bd
       0.088064134 0.20730901 -0.015771776 -0.086904004
000050 24 01 4f bc 19 99 97 be 5d c3 63 3e 58 68 60 be
       -0.012634549 -0.29608992 0.22242494 -0.21914804
000060 0a 69 1b bd 46 d6 26 bc f0 b2 34 3e 74 57 48 3e
       -0.03794197 -0.010182923 0.17646384 0.1956461
000070 8c 06 e3 bd 42 ce 89 3e 75 7e e6 bd ea d5 b6 bd
       -0.11085233 0.26915175 -0.112545885 -0.089275196
000080 b3 20 8d be 01 5a 85 bd 1f fe 0f be 76 44 cf bd
       -0.2756401 -0.065113075 -0.14061783 -0.1012048
000090 e1 eb c5 bb f0 36 40 3e 54 b5 95 3e f8 cc 8a 3d
       -0.006040082 0.18770957 0.29239905 0.06777376
0000a0 08 73 bb 3c 78 a8 78 bd 77 8d 81 be 07 40 87 3e
       0.022882 -0.06070754 -0.25303242 0.26416036
0000b0 52 bc 02 3e 75 c0 6d 3e 0a 19 0d bf e1 ca 0a be
       0.12767151 0.23217948 -0.5511633 -0.13553955
0000c0 1a 47 34 3e 84 70 84 be dc 2d 42 3d 9c 90 ea bb
       0.17605248 -0.25867093 0.047407016 -0.007158352
0000d0 95 c5 e9 3d 4a b3 a8 3e 12 9b 83 be 64 52 93 be
       0.11414639 0.32949287 -0.25704247 -0.28773797
0000e0 7d e5 14 3e 38 20 5f be e3 d9 9d 3e cb 62 80 bd
       0.14540668 -0.21789634 0.30830297 -0.06268843
0000f0 41 0b c0 bb be 87 74 3e e6 93 ea 3d 9d 82 3b 3d
       -0.0058607166 0.23879907 0.11453991 0.04577886
000100 d6 30 a4 bd 37 0a a4 bd 4f c1 49 be ee 1f 27 3e
       -0.08017127 -0.08009761 -0.19702648 0.16320774
000110 ab 2e 4f 3e 9f eb 3e bc e7 cb 72 3e c0 97 e1 bd
       0.20232646 -0.011652856 0.23710595 -0.11015272
000120 10 7f d7 3d d4 8c 84 be c0 3b a5 bd 6f 51 1b be
       0.10522282 -0.25888693 -0.08068037 -0.15167783
000130 01 1a 1a 3d 51 be 57 be 6e 35 30 be 3e 22 5e be
       0.037622456 -0.21068694 -0.17207882 -0.2169275
000140 72 46 87 be 83 8d b2 be 53 75 32 3e 6a af 41 bb
       -0.26420933 -0.3487359 0.17427568 -0.0029554018
000150 d9 63 2f 3c 2c b6 5f 3e eb d9 c3 3d b0 a9 06 be
       0.010704958 0.21846837 0.09563049 -0.13150668
000160 d5 c6 78 bd 3d 1f b1 bd d6 28 46 be 96 ea ed bd
       -0.060736496 -0.08648536 -0.19351515 -0.11617009
000170 90 32 23 3e c1 12 b1 bd 1c 77 df bd 03 e6 6c bd
       0.15937257 -0.08646155 -0.1091139 -0.057836544
000180 d6 2e 4a bd 52 58 00 be 76 31 9e bd 42 48 a7 3e
       -0.049361072 -0.12533692 -0.07724278 0.32672316
000190 8d 22 22 be a3 96 60 be 18 60 21 be ee 8d 9a bb
       -0.15833493 -0.21932463 -0.15759313 -0.0047166264
0001a0 43 da 6c 3d e7 81 37 be eb ca 24 be 0e 1c b0 3e
       0.057825338 -0.17920648 -0.16093032 0.34396404
0001b0 47 3a 66 be 3f fb 47 be e9 dd 57 be da b0 d0 bc
       -0.22483169 -0.19529437 -0.21080746 -0.025474954
0001c0 cc 94 ef 3d 3f 5e ed bd 9b 27 50 bd df ca 28 be
       0.116983026 -0.11590242 -0.05081902 -0.16483639
0001d0 82 58 8c be 96 d3 00 be 02 fa 22 3e 28 91 c0 3e
       -0.27411276 -0.12580714 0.15915683 0.37610745
0001e0 97 ad 5f be 45 1c ee 3d 4c d9 a9 3d 6b cd 33 be
       -0.21843563 0.11626486 0.08293399 -0.1755883
0001f0 b2 85 9b be 66 b9 17 be 4a 03 40 be 6a 1a b9 3d
       -0.3037544 -0.14816818 -0.18751255 0.09038241
000200 8f 00 bc 3e 31 88 9e be 7f 4d a0 be f4 41 21 be
       0.36719176 -0.3096328 -0.31309125 -0.15747815
000210 d3 be 3d 3b 0e 7c 3a be d3 f7 12 3e 96 0a 56 3e
       0.0028952851 -0.18211386 0.1435235 0.20902476
000220 72 e7 87 3e bb 17 9f 3e 0b be 27 3e 38 12 c9 b9
       0.26543766 0.31072792 0.1638109 -0.00038351282
000230 36 cc 1e bd 9a 48 b5 be 25 33 42 3e 10 c0 d7 3d
       -0.03876897 -0.35406953 0.18964823 0.1053468
000240 3b 94 14 bd f8 4d 86 3e 3a fc d6 bd 56 34 d0 be
       -0.036274176 0.2623136 -0.10497327 -0.4066493
000250 ec f1 ca be 38 a0 83 be 57 ae ed bd bf d0 6e 3e
       -0.39637697 -0.25708175 -0.11605518 0.23321818
000260 93 f0 cf bd e0 6c b9 bd d4 39 41 3e dc bb a9 bd
       -0.10153308 -0.090539694 0.18869716 -0.082877845
000270 d5 4f 50 be 65 47 08 be 5e 23 1d be 3f b6 66 be
       -0.20342954 -0.13308485 -0.15345523 -0.22530459
000280 a2 01 b8 bb 1a 9b 80 3e aa 03 a6 bc 1e d7 07 3e
       -0.005615429 0.25118333 -0.020265419 0.13265654
000290 9e 8f d3 be 04 e8 93 3d b2 57 02 be 2b 3d ad bc
       -0.4132051 0.07221988 -0.12728766 -0.021147331
0002a0 f1 34 03 3d 81 af 22 3e f4 db c1 bb 05 25 a2 3d
       0.03203291 0.15887262 -0.005916113 0.07917217
0002b0 3c 50 1d 3d 3c 9a 80 3d 6e b5 f6 bd f8 85 5c bd
       0.038406596 0.06279418 -0.12046324 -0.0538387
0002c0 ad b4 9c be 02 39 65 be f7 40 47 3d 09 c5 95 3e
       -0.30606595 -0.22385028 0.04864594 0.29251888
0002d0 a1 c5 d2 bd 8e 41 8d 3b 6c bf d5 bd a4 d2 33 be
       -0.10291601 0.0043107932 -0.104369015 -0.17560822
0002e0 2f 06 6d 3e b4 2e 9d 3e 45 e3 15 bc a7 1b 83 3d
       0.2314689 0.30699694 -0.009148424 0.06401759
0002f0 b0 21 cf bd 93 d4 e4 bd 20 d4 b9 bc 53 16 ce be
       -0.10113847 -0.11173358 -0.022684157 -0.40251407
000300 51 79 24 be c9 e1 44 3d 90 79 20 3e 00 6b 3a 3c
       -0.16061904 0.048066888 0.15671372 0.01137805
000310 f8 36 9c 3e 96 3a 48 bd 9e fc 71 be 90 6c a1 3e
       0.30510688 -0.048883997 -0.23631522 0.3152814
000320 24 4c 2d 3e 74 62 1c 3f 66 14 9e 3d 6f 6a 85 be
       0.16923577 0.6108773 0.077187344 -0.26057765
000330 75 54 c5 3b 74 88 8e 3e 99 68 af bd 65 78 69 3b
       0.006022031 0.2783848 -0.08564872 0.003562474
000340 fb cf a7 bc 54 94 ca bc e4 d5 10 3e 0f 3f 12 be
       -0.020484915 -0.024728931 0.14144093 -0.14281867
000350 33 e7 3d be bd 54 a4 be 43 e7 9d 3d e6 21 17 be
       -0.18545227 -0.320959 0.07710125 -0.14759025
000360 2e 46 a4 3c 37 53 85 3e 28 f0 81 be 4a 30 0a bd
       0.020052996 0.2604005 -0.25378537 -0.03373746
000370 15 9a b4 be ab 6f 67 be 2f ed bf bd f2 76 ce 3e
       -0.35273805 -0.22601192 -0.09371411 0.40325123
000380 fa 13 7f be 33 ea de bd 67 66 8e bc 6a ed 74 3e
       -0.24909964 -0.10884514 -0.017382814 0.23918691
000390 2f 43 47 be 45 a8 e7 3e de bc 99 be 9f c2 33 be
       -0.19459222 0.45245567 -0.30026907 -0.17554711
0003a0 dc d6 4e 3d b0 64 86 3e 05 b3 74 3e cc 3a 5a be
       0.050497875 0.26248693 0.23896416 -0.21311492
0003b0 9c 5a a9 bd ea e7 03 3e 9b d5 df 3e 31 36 90 3d
       -0.082692355 0.12881437 0.43717656 0.07041586
0003c0 41 08 40 3e 4c 62 50 be 8e 1f e6 bc b0 74 e5 3d
       0.18753149 -0.20349997 -0.028091218 0.11203897
0003d0 ca 9a 27 3e a6 e9 30 3e 0d f5 a2 bc 36 8f ab 3e
       0.16367641 0.1727663 -0.01989224 0.335077
0003e0 e7 ae b0 3c e6 67 0a 3e 64 3b 9d be 9c e1 3d 3e
       0.021567775 0.13516197 -0.30709374 0.18543094
0003f0 0f 77 e9 3e be 6b 25 bc fa eb dc 3d 89 b6 0b be
       0.45598647 -0.0100964885 0.107871965 -0.1364385

lstm.weight_hh_l1 f4 [256, 64]
000000 51 08 42 be 57 cd c6 bd ce e1 2f be b5 23 46 3e
       -0.18948485 -0.09707134 -0.17175981 0.19349559
000010 7f 44 2c be ac 28 86 be 82 db 03 3e 1a 1f 89 3d
       -0.16823004 -0.26202905 0.12876704 0.06695385
000020 45 55 18 be d8 18 91 3e 6e c8 10 3f 2e 59 c4 be
       -0.14876278 0.28339267 0.5655583 -0.3834929
000030 85 fb df 3d b7 5e 51 be 64 26 99 bd 1c 02 b4 3e
       0.109366454 -0.20446287 -0.074780256 0.3515786
000040 83 75 82 bd de 00 f7 3d ed 8e ae bd cf c9 9c 3e
       -0.0637007 0.12060712 -0.08523355 0.30622718
000050 80 36 3f be 50 72 40 bd 54 fd 0e be fb f6 7c be
       -0.18673134 -0.046984017 -0.13963825 -0.2470359
000060 70 e4 1e 3e 97 f2 41 3d f4 b9 46 be 63 6b a3 bd
       0.1551683 0.047350492 -0.19406873 -0.07979467
000070 36 43 c1 3e 05 c0 96 3d 86 2b 09 3e ce c7 26 be
       0.3774659 0.073608436 0.13395509 -0.16287157
000080 81 e4 0c 3d ff 7a c4 3c 89 d7 2b be 0f 7b 96 3c
       0.034397606 0.02398443 -0.16781439 0.018369226
000090 90 2f ed be 8d 06 23 3d dc 78 85 be 5a d4 52 be
       -0.4632535 0.03980117 -0.2606877 -0.20588818
0000a0 cd 5b 46 bd 37 8d a0 be c0 d1 30 3e ac d6 f6 bd
       -0.04842739 -0.31357738 0.17267513 -0.12052664
0000b0 fd 70 3c 3e cc f3 93 3e cb 28 70 be bf a5 dd be
       0.18402477 0.2889694 -0.23453061 -0.43290517
0000c0 b6 6d 01 3e 7d d5 be bd e8 17 93 3d 57 49 83 3d
       0.12639508 -0.093180634 0.07182294 0.06410473
0000d0 71 fe 47 3e 37 c4 32 bb 55 b0 0a 3e 69 cb 40 3e
       0.19530655 -0.0027277598 0.13543828 0.18827595
0000e0 71 ac b5 be 8f b4 d9 3e cb 04 3c 3e b5 83 96 be
       -0.35483125 0.42520568 0.18361203 -0.2939736
0000f0 4e a7 0d 3e 5b 5d de bd 5f 85 c9 bd f5 cf ce 3e
       0.13833353 -0.1085765 -0.09839892 0.40393034
000100 d4 4f 65 3d 99 ae af 3d cb 3a 5d 3e 18 57 58 bd
       0.055984333 0.08578224 0.21604459 -0.052817434
000110 7d a5 f9 bd 82 81 1e be 00 1c 81 3d 79 c5 fc 3c
       -0.121897675 -0.15479091 0.06304169 0.030855881
000120 93 e2 2a be e0 3d 03 3e f1 cc 4a be a5 bc 4f 3e
       -0.16687994 0.12816572 -0.19804741 0.20286806
000130 dc 5c 76 be 5b 3e 53 be 09 1d 43 bd 0f f6 8f be
       -0.2405886 -0.20629255 -0.047635112 -0.28117415
000140 d8 ff b9 3b 28 5e bc bd 6a 15 50 3e a9 f3 91 3e
       0.005676251 -0.091976464 0.20320669 0.2850621
000150 06 f3 29 3d 5a 15 50 be 8c 66 96 be 91 19 a1 ba
       0.04149153 -0.20320645 -0.29375112 -0.0012290945
000160 89 af 23 be 81 94 b0 3c ba 61 2b 3e 14 d2 3c bc
       -0.1598493 0.021555187 0.16736498 -0.011524696
000170 1a dc 1c be 41 08 75 3e fa db da bc 16 e9 82 be
       -0.15318337 0.2392893 -0.026716221 -0.25568455
000180 c2 04 d5 3d d6 47 5b bd b4 89 fb 3d cb c4 3a 3e
       0.10401298 -0.053535305 0.12282124 0.18239133
000190 c5 5b 3d 3e 94 6c fd 3d b1 27 4b be a0 46 1d 3f
       0.18492039 0.12374225 -0.1983936 0.6143589
0001a0 0d 81 f1 bb 79 f8 9e bd 64 5f 14 be 44 62 96 bd
       -0.0073701204 -0.07762236 -0.14489514 -0.073429614
0001b0 31 74 64 3d 2c 11 f5 bb 77 81 b8 3d cb 7b 1b be
       0.05577487 -0.0074788537 0.090090685 -0.15183942
0001c0 50 4b 34 bd 1f b5 11 3e 57 8f b5 3d 3f 36 e0 3d
       -0.044017136 0.14229248 0.088652305 0.109478466
0001d0 20 7b 20 be ef 45 b2 3e 9a f1 58 3d cd 68 32 be
       -0.15671968 0.3481898 0.052964784 -0.17422791
0001e0 7a 2f 84 be a5 d5 06 be d4 a3 bb 3d 2c db 2e 3e
       -0.25817472 -0.13167436 0.09162107 0.17075795
0001f0 80 c9 e7 bc f2 76 ac bd 61 aa a3 3c 7a 4c 84 be
       -0.028294325 -0.084211245 0.019978704 -0.25839597
000200 f9 56 38 be 46 f5 13 3d 14 18 32 be ee 46 43 bd
       -0.18001927 0.036122583 -0.17391998 -0.047675066
000210 90 10 0e 3d 88 00 aa 3e 59 81 81 3e e7 bb 6a bc
       0.034683764 0.3320353 0.25293997 -0.014327026
000220 f7 9f ed 3e d9 25 92 3e 1f 6b 81 bd 33 b9 52 be
       0.46411106 0.285445 -0.0631926 -0.2057846
000230 fe 7a fa 3e 8c 7d 23 bd 33 0c db bd 90 b6 26 be
       0.4892196 -0.039914653 -0.10695686 -0.1628058
000240 0c 2a 16 3f 5a 2d 18 bd ee a9 3a 3f 6a 2a 25 3e
       0.5865791 -0.037152626 0.7291554 0.16129461
000250 29 a2 0f 3e 07 c6 45 bd 75 75 68 be f3 a0 18 3e
       0.14026703 -0.048284557 -0.22701056 0.14905147
000260 fe 67 75 3c e5 0d 3b 3e f9 52 64 3e 60 d3 38 3e
       0.014978407 0.18267019 0.22297277 0.18049383
000270 50 1a 2f be 8b c0 41 3e 4b 30 2e 3e de b8 13 bf
       -0.17099881 0.18921106 0.1701061 -0.5770396
000280 91 55 2a 3e 5c da 3e be f9 c0 0a 3f d6 2b 02 be
       0.16634203 -0.18637985 0.542007 -0.12712035
000290 7b 16 15 be 64 4e c6 3d fc 3e ee 3d f5 26 38 3e
       -0.14559357 0.096829206 0.11633107 0.17983611
0002a0 77 0a 58 bd 93 52 57 be 32 d9 29 be a7 bc 1d 3d
       -0.052744355 -0.21027593 -0.1658676 0.03850999
0002b0 f9 67 a4 3e 99 c4 fb 3d 31 46 3e be 3a 2d e0 be
       0.32110575 0.122933574 -0.18581463 -0.43784505
0002c0 2e 20 d8 bd 85 36 0f be de 0e 34 3e 47 ed 6c be
       -0.10553013 -0.13985641 0.17583796 -0.23137389
0002d0 36 99 ca 3c 8f af 02 bd d7 ac 86 3e 8b 47 2f be
       0.02473126 -0.031905707 0.2630374 -0.17117135
0002e0 cb 46 2b 3e 87 ee 0c be 62 d9 12 3e ba a5 75 be
       0.16726224 -0.13762866 0.14340737 -0.23989001
0002f0 9a 40 e3 3d dc 68 12 bf c0 96 39 3d e3 ed bb be
       0.11096306 -0.5719125 0.045309782 -0.3670493
000300 52 7d 3d 3e 1d 0e b9 bd b9 f1 56 be fe f6 75 bd
       0.18504837 -0.09035895 -0.20990647 -0.060050003
000310 dc ec 89 3e ab ad d2 3c 72 49 96 bd 90 e6 62 3e
       0.26938522 0.025717577 -0.07338227 0.22158265
000320 bd 9d 33 3e 27 f7 46 3e f5 3e a8 3d 36 5a 6d be
       0.17540641 0.19430219 0.08215133 -0.23178944
000330 b6 69 25 3e 64 ce a1 3d 59 18 cf 3e a5 81 3f be
       0.16153607 0.07900694 0.40448263 -0.18701799
000340 e4 df 37 3e ea c4 6b 3e 08 2c 7d 3e c2 79 3e bd
       0.17956501 0.23024336 0.24723828 -0.046502836
000350 78 49 7d 3e fc 28 0d be 3e 93 b2 3d 42 14 a0 3e
       0.24735057 -0.13785166 0.087194905 0.31265455
000360 03 22 85 3e e0 9d 9b 3e 7d be 3e 3c 48 b5 a9 3e
       0.2600251 0.30393887 0.011642096 0.3314612
000370 e5 bf 5c bc 1b 2f 26 3e 42 7c 37 3e 59 01 03 bd
       -0.013473486 0.16228907 0.17918494 -0.031983707
000380 96 f8 cb 3e ea 19 ed 3d 02 94 82 3e e3 d2 46 3e
       0.39838094 0.11577208 0.25503546 0.19416384
000390 d9 77 95 be 20 d1 9b be 1e 82 cc bd 69 80 ca 3d
       -0.29193 -0.30432987 -0.099857554 0.098877735
0003a0 65 36 1a be 32 77 3c be 27 a1 2a 3c 41 35 6c 3e
       -0.15059812 -0.18404844 0.010414398 0.2306719
0003b0 b7 7b 1b 3e e6 ad cd 3e 6a 1d 97 3e 99 15 c7 bd
       0.15183912 0.40171736 0.2951463 -0.09720916
0003c0 b2 4a 49 be 0d de 40 be 30 d4 0c 3e 9c 44 78 3d
       -0.196574 -0.18834706 0.13752818 0.060612306
0003d0 e0 39 56 3e f2 24 68 bc 72 b5 05 3e d5 48 4d 3d
       0.20920515 -0.014168965 0.13057497 0.050118286
0003e0 79 eb 1d 3e 4b 5a 5a 3e 16 0d 05 be 73 5b ca be
       0.15421857 0.21323507 -0.12993273 -0.39522895
0003f0 7b 75 57 bd 3b a3 b9 be 2d 0c 7c 3e 4d 66 95 be
       -0.052602272 -0.36257347 0.2461402 -0.29179612

lstm.bias_ih_l1 f4 [256]
000000 db 15 56 bd 98 49 ed be 6b 40 bf 3e f6 f1 a4 3d
       -0.052266937 -0.4634521 0.37353835 0.08053963
000010 af 43 d6 3e fd 81 8c be 0f a1 c8 be 32 e2 6d 3e
       0.41848513 -0.27442923 -0.39185378 0.23230818
000020 38 5d 15 bf 12 26 ee be 9c 74 8d 3d 92 e8 d0 be
       -0.58345366 -0.4651342 0.06907007 -0.40802437
000030 05 fa d9 be 0e e8 f4 3e f3 9c e8 bd e6 a2 e3 bd
       -0.42573562 0.47833294 -0.11358061 -0.11115055
000040 5a 59 88 be 7e 43 c9 3e 11 c0 c5 be 16 54 68 be
       -0.2663067 0.39309305 -0.38623098 -0.22688326
000050 7a 2b 9f be 72 4b c7 be 23 9b 2a 3f da 3e d3 3e
       -0.31087857 -0.38924748 0.6664297 0.4125889
000060 5e 8d 26 bd 03 4d 90 3e a4 31 10 be 2d 90 10 be
       -0.040662162 0.28183755 -0.14081436 -0.14117499
000070 da c2 29 3f 6d 29 d4 bd 31 f7 20 bf f3 f1 cc be
       0.66312945 -0.10359464 -0.62877184 -0.40028343
000080 69 19 52 3f 05 d3 c3 be ab c6 af be b2 cf 03 be
       0.8207002 -0.38246933 -0.3433126 -0.12872198
000090 8f a5 d4 be 69 96 3b bf fb 08 a6 be e4 3a 1c bf
       -0.4153256 -0.7327638 -0.32428727 -0.6102736
0000a0 b5 6f a5 bd 3f 8d d4 be 58 94 9b be dc 93 a8 3e
       -0.08077947 -0.41514012 -0.30386615 0.32925308
0000b0 e2 34 1e 3e 63 57 a7 3d 47 55 1d 3d 71 5e 92 be
       0.1544986 0.081709646 0.038411405 -0.28587678
0000c0 23 a7 05 be 65 7b 2f bf d8 8f 1e 3f d1 cb e9 3e
       -0.13052039 -0.6854766 0.6193824 0.45663312
0000d0 b7 8b 03 be c0 89 b0 bd 1a 2f cb 3e af 29 2c be
       -0.12846266 -0.08620024 0.39684373 -0.16812776
0000e0 a8 40 dc 3e 22 a3 9d 3e b5 0c 1d 3f 9c 13 00 bf
       0.4301808 0.30788523 0.61347514 -0.5002992
0000f0 05 c1 73 3f 95 ad 8d bd 35 ae c1 be 13 ad 50 3d
       0.952164 -0.06917874 -0.37828222 0.050946306
000100 97 7b 91 3e 28 05 73 3f ff 03 b8 be 7a 55 ac be
       0.28414604 0.9492974 -0.3594055 -0.33658963
000110 cd a6 ba be 33 ac 8d bd 01 d2 5b 3e b5 48 c9 be
       -0.36455384 -0.0691761 0.21466829 -0.39313284
000120 01 4e 8c be 77 8c 37 3f 17 a7 fd bd 7d 6a f2 3d
       -0.27403262 0.7169871 -0.123853855 0.11836717
000130 b4 a6 fb 3e f4 f3 11 bf 0e 33 d6 be ac f1 15 bf
       0.49150622 -0.5701287 -0.41835827 -0.58571887
000140 41 c0 ed be e3 90 c5 be 16 a5 01 be 90 19 0d be
       -0.4643574 -0.38587102 -0.12660632 -0.13779283
000150 26 60 a1 3e b0 1c be 3d c9 56 00 bf 06 72 ca be
       0.31518668 0.092828155 -0.50132424 -0.39540118
000160 dc c0 09 be 9e 54 ff be 0a df 30 be c1 46 6f be
       -0.13452476 -0.49869245 -0.17272583 -0.23366834
000170 cb 4a a0 be 5e 7d 45 be 46 c7 8d 3f 2b b9 65 3f
       -0.31307063 -0.19286105 1.1076438 0.8973567
000180 e1 63 9f be 83 db a9 bb ed 9b 89 bd b0 59 86 be
       -0.3113089 -0.0051836385 -0.067191936 -0.262403
000190 4d 07 4b 3e e5 9c 20 3e 2d 66 b7 be aa 33 9a 3d
       0.19827004 0.1568485 -0.3582014 0.075293854
0001a0 f7 30 0f bf bd c2 aa be eb 65 05 be 47 5e db be
       -0.5593409 -0.333517 -0.1302716 -0.42845365
0001b0 a1 07 c9 be 6a eb d7 be 44 11 f7 be aa 74 ae be
       -0.39263633 -0.42171794 -0.4825536 -0.34073383
0001c0 4f ea f8 be 3d 0a 9c 3f fe 7b 1c bf 43 79 ed be
       -0.48616263 1.2190624 -0.611267 -0.46381578
0001d0 f5 5b 85 3d 80 d9 a2 be 60 db cf be b6 c9 41 3e
       0.0651168 -0.31806564 -0.40597057 0.18924603
0001e0 b4 75 e2 be 66 31 f8 bd ff 0e f0 be e5 02 e3 3d
       -0.44230425 -0.12118797 -0.4688644 0.110845365
0001f0 d8 41 a3 be 69 be 9f be 83 a5 4b 3f 78 2b c8 be
       -0.31886172 -0.3119996 0.79549426 -0.39095664
000200 11 cc 7c bd 6f 2d ed 3c e8 d7 63 3d c1 2d b1 3c
       -0.06171805 0.028952328 0.055625826 0.021628262
000210 31 f1 ea bd 59 62 40 3d 60 6e 50 3d 7c 1c c2 bd
       -0.11471785 0.04696879 0.05088651 -0.09478089
000220 65 76 38 3d c9 e8 a1 bd 85 5c 3c bd 14 0e 82 bc
       0.045034785 -0.07905728 -0.04598667 -0.015875854
000230 e3 b0 37 3d b1 5c 11 bd ba fb 18 3d c7 b8 6d bd
       0.044846427 -0.035488788 0.03734944 -0.058037546
000240 30 97 3e bc 95 c9 ba bb 85 31 96 bc 29 32 26 3c
       -0.011632726 -0.0057003 -0.01833416 0.010143795
000250 98 6f 10 bd 6e 29 a1 bd fc 21 be 3d 54 a8 90 3d
       -0.035262674 -0.0786923 0.09283826 0.07063356
000260 b1 ae f2 3c 17 be 23 bd a9 7d 4c bd 90 4f 71 3d
       0.029624315 -0.039976206 -0.049924526 0.058913767
000270 6e 1a e5 bc 06 e9 af 3d 1f 25 ea bc 2d 35 67 bd
       -0.027966704 0.085893676 -0.028582154 -0.056447197
000280 b6 09 5f 3d fa d2 10 bd 02 3c 64 3d 6b 77 9c bc
       0.05445262 -0.035357453 0.05572129 -0.019099912
000290 44 5d 04 3d 15 58 49 bd e9 4e 84 bd 56 4a 79 bc
       0.032315508 -0.049156267 -0.064603634 -0.015215477
0002a0 8b 19 38 3c f8 fa 0a bd 3a 7a 53 3d 24 ad 99 3d
       0.011236559 -0.03393075 0.051630236 0.07503727
0002b0 7e 96 a2 bd 4c f5 7f 3d 0f 29 d6 3c 2f 98 18 bd
       -0.0793886 0.062489793 0.026142625 -0.03725451
0002c0 91 45 b2 bd b2 81 17 bc 6c 01 52 bd c9 90 2b bd
       -0.08704675 -0.00924723 -0.051270887 -0.041886125
0002d0 c7 6b 87 bd e2 95 9b bd 2f ee 98 bd 77 04 55 bd
       -0.06612354 -0.07596947 -0.07467305 -0.05200621
0002e0 a8 99 c7 3c 48 84 27 bd d5 18 c5 3c db 1d 3e 3c
       0.024365261 -0.040897638 0.024059692 0.011603798
0002f0 30 05 c1 3d 2a 4a 1b bd 93 eb 8c bc 05 1e 14 3d
       0.094248176 -0.037912525 -0.017202174 0.03616144
000300 99 63 3c be 02 f6 21 bd d6 a8 ac 3e e8 f8 47 3d
       -0.18397368 -0.039541252 0.33722562 0.04882136
000310 cb 22 89 3e f0 2a 9a be d5 32 97 be 21 8d cf 3e
       0.26784357 -0.30110884 -0.2953097 0.4053736
000320 cb a7 0c bf bc ee dc be 3e 15 23 3e f8 00 00 bf
       -0.5494353 -0.4315089 0.15926072 -0.5000148
000330 48 3e 08 bf a5 13 18 3f b9 24 53 be 19 b1 0c be
       -0.53220034 0.59404975 -0.20619477 -0.13739432
000340 53 c8 38 be f4 6e 05 3f 6f 83 a7 be 60 db ad be
       -0.18045168 0.52122426 -0.32717463 -0.33956432
000350 b6 17 aa be f3 4c d5 be fa 7c 1b 3f a3 33 01 3f
       -0.33221215 -0.4166027 0.60737574 0.50469416
000360 14 b6 3a bd 27 55 7c 3e e6 38 f5 bd 50 80 b5 bd
       -0.0455838 0.24641858 -0.11973743 -0.08862364
000370 1f 5a 3e 3f 3f 02 62 3c bd 7d e1 be ff 04 cc bd
       0.74356264 0.013794481 -0.44041243 -0.099618904
000380 f3 af 48 3f 9d c4 d1 be b2 31 ea be 66 d5 a5 bd
       0.7839348 -0.40970317 -0.4574104 -0.08097343
000390 91 77 cc be 77 0d c8 be 72 8f 71 be 22 21 12 bf
       -0.39934972 -0.39072773 -0.23589876 -0.57081807
0003a0 9d 6d 8e be ed e1 00 bf e4 a4 2b be 39 aa 76 3e
       -0.27818003 -0.50344735 -0.1676212 0.24088372
0003b0 a7 03 54 3e 6c 62 e7 3d 91 6b 81 bd 8b 0d f1 be
       0.20704518 0.11298069 -0.06319345 -0.47080645
0003c0 6b f6 08 3d 88 fd 7f be f3 0d 24 3f 04 d6 bd 3e
       0.033438127 -0.24999058 0.64083785 0.37077343
0003d0 c8 02 e3 bd e3 28 4a ba 18 cb b5 3e 35 26 a5 be
       -0.11084515 -0.0007711781 0.3550651 -0.32255712
0003e0 ff c2 f0 3e 92 0c 67 3e af b3 00 3f 9c c3 f4 be
       0.4702377 0.22563389 0.50274175 -0.47805488
0003f0 52 fc 8a 3f 57 7c 35 be 39 b0 e5 be 7c aa c2 bc
       1.0858252 -0.17723213 -0.4486101 -0.023762934
